{"alexnet": "AlexNet(\n  (features): Sequential(\n    (0): Conv2d(3, 64, kernel_size=(11, 11), stride=(4, 4), padding=(2, 2))\n    (1): ReLU(inplace=True)\n    (2): MaxPool2d(kernel_size=3, stride=2, padding=0, dilation=1, ceil_mode=False)\n    (3): Conv2d(64, 192, kernel_size=(5, 5), stride=(1, 1), padding=(2, 2))\n    (4): ReLU(inplace=True)\n    (5): MaxPool2d(kernel_size=3, stride=2, padding=0, dilation=1, ceil_mode=False)\n    (6): Conv2d(192, 384, kernel_size=(3, 3), stride=(1, 1), padding=(1, 1))\n    (7): ReLU(inplace=True)\n    (8): Conv2d(384, 256, kernel_size=(3, 3), stride=(1, 1), padding=(1, 1))\n    (9): ReLU(inplace=True)\n    (10): Conv2d(256, 256, kernel_size=(3, 3), stride=(1, 1), padding=(1, 1))\n    (11): ReLU(inplace=True)\n    (12): MaxPool2d(kernel_size=3, stride=2, padding=0, dilation=1, ceil_mode=False)\n  )\n  (avgpool): AdaptiveAvgPool2d(output_size=(6, 6))\n  (classifier): Sequential(\n    (0): Dropout(p=0.5, inplace=False)\n    (1): Linear(in_features=9216, out_features=4096, bias=True)\n    (2): ReLU(inplace=True)\n    (3): Dropout(p=0.5, inplace=False)\n    (4): Linear(in_features=4096, out_features=4096, bias=True)\n    (5): ReLU(inplace=True)\n    (6): Linear(in_features=4096, out_features=1000, bias=True)\n  )\n)", "convnext_base": "ConvNeXt(\n  (features): Sequential(\n    (0): Conv2dNormActivation(\n      (0): Conv2d(3, 128, kernel_size=(4, 4), stride=(4, 4))\n      (1): LayerNorm2d((128,), eps=1e-06, elementwise_affine=True)\n    )\n    (1): Sequential(\n      (0): CNBlock(\n        (block): Sequential(\n          (0): Conv2d(128, 128, kernel_size=(7, 7), stride=(1, 1), padding=(3, 3), groups=128)\n          (1): Permute()\n          (2): LayerNorm((128,), eps=1e-06, elementwise_affine=True)\n          (3): Linear(in_features=128, out_features=512, bias=True)\n          (4): GELU(approximate='none')\n          (5): Linear(in_features=512, out_features=128, bias=True)\n          (6): Permute()\n        )\n        (stochastic_depth): StochasticDepth(p=0.0, mode=row)\n      )\n      (1): CNBlock(\n        (block): Sequential(\n          (0): Conv2d(128, 128, kernel_size=(7, 7), stride=(1, 1), padding=(3, 3), groups=128)\n          (1): Permute()\n          (2): LayerNorm((128,), eps=1e-06, elementwise_affine=True)\n          (3): Linear(in_features=128, out_features=512, bias=True)\n          (4): GELU(approximate='none')\n          (5): Linear(in_features=512, out_features=128, bias=True)\n          (6): Permute()\n        )\n        (stochastic_depth): StochasticDepth(p=0.014285714285714285, mode=row)\n      )\n      (2): CNBlock(\n        (block): Sequential(\n          (0): Conv2d(128, 128, kernel_size=(7, 7), stride=(1, 1), padding=(3, 3), groups=128)\n          (1): Permute()\n          (2): LayerNorm((128,), eps=1e-06, elementwise_affine=True)\n          (3): Linear(in_features=128, out_features=512, bias=True)\n          (4): GELU(approximate='none')\n          (5): Linear(in_features=512, out_features=128, bias=True)\n          (6): Permute()\n        )\n        (stochastic_depth): StochasticDepth(p=0.02857142857142857, mode=row)\n      )\n    )\n    (2): Sequential(\n      (0): LayerNorm2d((128,), eps=1e-06, elementwise_affine=True)\n      (1): Conv2d(128, 256, kernel_size=(2, 2), stride=(2, 2))\n    )\n    (3): Sequential(\n      (0): CNBlock(\n        (block): Sequential(\n          (0): Conv2d(256, 256, kernel_size=(7, 7), stride=(1, 1), padding=(3, 3), groups=256)\n          (1): Permute()\n          (2): LayerNorm((256,), eps=1e-06, elementwise_affine=True)\n          (3): Linear(in_features=256, out_features=1024, bias=True)\n          (4): GELU(approximate='none')\n          (5): Linear(in_features=1024, out_features=256, bias=True)\n          (6): Permute()\n        )\n        (stochastic_depth): StochasticDepth(p=0.04285714285714286, mode=row)\n      )\n      (1): CNBlock(\n        (block): Sequential(\n          (0): Conv2d(256, 256, kernel_size=(7, 7), stride=(1, 1), padding=(3, 3), groups=256)\n          (1): Permute()\n          (2): LayerNorm((256,), eps=1e-06, elementwise_affine=True)\n          (3): Linear(in_features=256, out_features=1024, bias=True)\n          (4): GELU(approximate='none')\n          (5): Linear(in_features=1024, out_features=256, bias=True)\n          (6): Permute()\n        )\n        (stochastic_depth): StochasticDepth(p=0.05714285714285714, mode=row)\n      )\n      (2): CNBlock(\n        (block): Sequential(\n          (0): Conv2d(256, 256, kernel_size=(7, 7), stride=(1, 1), padding=(3, 3), groups=256)\n          (1): Permute()\n          (2): LayerNorm((256,), eps=1e-06, elementwise_affine=True)\n          (3): Linear(in_features=256, out_features=1024, bias=True)\n          (4): GELU(approximate='none')\n          (5): Linear(in_features=1024, out_features=256, bias=True)\n          (6): Permute()\n        )\n        (stochastic_depth): StochasticDepth(p=0.07142857142857142, mode=row)\n      )\n    )\n    (4): Sequential(\n      (0): LayerNorm2d((256,), eps=1e-06, elementwise_affine=True)\n      (1): Conv2d(256, 512, kernel_size=(2, 2), stride=(2, 2))\n    )\n    (5): Sequential(\n      (0): CNBlock(\n        (block): Sequential(\n          (0): Conv2d(512, 512, kernel_size=(7, 7), stride=(1, 1), padding=(3, 3), groups=512)\n          (1): Permute()\n          (2): LayerNorm((512,), eps=1e-06, elementwise_affine=True)\n          (3): Linear(in_features=512, out_features=2048, bias=True)\n          (4): GELU(approximate='none')\n          (5): Linear(in_features=2048, out_features=512, bias=True)\n          (6): Permute()\n        )\n        (stochastic_depth): StochasticDepth(p=0.08571428571428572, mode=row)\n      )\n      (1): CNBlock(\n        (block): Sequential(\n          (0): Conv2d(512, 512, kernel_size=(7, 7), stride=(1, 1), padding=(3, 3), groups=512)\n          (1): Permute()\n          (2): LayerNorm((512,), eps=1e-06, elementwise_affine=True)\n          (3): Linear(in_features=512, out_features=2048, bias=True)\n          (4): GELU(approximate='none')\n          (5): Linear(in_features=2048, out_features=512, bias=True)\n          (6): Permute()\n        )\n        (stochastic_depth): StochasticDepth(p=0.1, mode=row)\n      )\n      (2): CNBlock(\n        (block): Sequential(\n          (0): Conv2d(512, 512, kernel_size=(7, 7), stride=(1, 1), padding=(3, 3), groups=512)\n          (1): Permute()\n          (2): LayerNorm((512,), eps=1e-06, elementwise_affine=True)\n          (3): Linear(in_features=512, out_features=2048, bias=True)\n          (4): GELU(approximate='none')\n          (5): Linear(in_features=2048, out_features=512, bias=True)\n          (6): Permute()\n        )\n        (stochastic_depth): StochasticDepth(p=0.11428571428571428, mode=row)\n      )\n      (3): CNBlock(\n        (block): Sequential(\n          (0): Conv2d(512, 512, kernel_size=(7, 7), stride=(1, 1), padding=(3, 3), groups=512)\n          (1): Permute()\n          (2): LayerNorm((512,), eps=1e-06, elementwise_affine=True)\n          (3): Linear(in_features=512, out_features=2048, bias=True)\n          (4): GELU(approximate='none')\n          (5): Linear(in_features=2048, out_features=512, bias=True)\n          (6): Permute()\n        )\n        (stochastic_depth): StochasticDepth(p=0.12857142857142856, mode=row)\n      )\n      (4): CNBlock(\n        (block): Sequential(\n          (0): Conv2d(512, 512, kernel_size=(7, 7), stride=(1, 1), padding=(3, 3), groups=512)\n          (1): Permute()\n          (2): LayerNorm((512,), eps=1e-06, elementwise_affine=True)\n          (3): Linear(in_features=512, out_features=2048, bias=True)\n          (4): GELU(approximate='none')\n          (5): Linear(in_features=2048, out_features=512, bias=True)\n          (6): Permute()\n        )\n        (stochastic_depth): StochasticDepth(p=0.14285714285714285, mode=row)\n      )\n      (5): CNBlock(\n        (block): Sequential(\n          (0): Conv2d(512, 512, kernel_size=(7, 7), stride=(1, 1), padding=(3, 3), groups=512)\n          (1): Permute()\n          (2): LayerNorm((512,), eps=1e-06, elementwise_affine=True)\n          (3): Linear(in_features=512, out_features=2048, bias=True)\n          (4): GELU(approximate='none')\n          (5): Linear(in_features=2048, out_features=512, bias=True)\n          (6): Permute()\n        )\n        (stochastic_depth): StochasticDepth(p=0.15714285714285714, mode=row)\n      )\n      (6): CNBlock(\n        (block): Sequential(\n          (0): Conv2d(512, 512, kernel_size=(7, 7), stride=(1, 1), padding=(3, 3), groups=512)\n          (1): Permute()\n          (2): LayerNorm((512,), eps=1e-06, elementwise_affine=True)\n          (3): Linear(in_features=512, out_features=2048, bias=True)\n          (4): GELU(approximate='none')\n          (5): Linear(in_features=2048, out_features=512, bias=True)\n          (6): Permute()\n        )\n        (stochastic_depth): StochasticDepth(p=0.17142857142857143, mode=row)\n      )\n      (7): CNBlock(\n        (block): Sequential(\n          (0): Conv2d(512, 512, kernel_size=(7, 7), stride=(1, 1), padding=(3, 3), groups=512)\n          (1): Permute()\n          (2): LayerNorm((512,), eps=1e-06, elementwise_affine=True)\n          (3): Linear(in_features=512, out_features=2048, bias=True)\n          (4): GELU(approximate='none')\n          (5): Linear(in_features=2048, out_features=512, bias=True)\n          (6): Permute()\n        )\n        (stochastic_depth): StochasticDepth(p=0.18571428571428572, mode=row)\n      )\n      (8): CNBlock(\n        (block): Sequential(\n          (0): Conv2d(512, 512, kernel_size=(7, 7), stride=(1, 1), padding=(3, 3), groups=512)\n          (1): Permute()\n          (2): LayerNorm((512,), eps=1e-06, elementwise_affine=True)\n          (3): Linear(in_features=512, out_features=2048, bias=True)\n          (4): GELU(approximate='none')\n          (5): Linear(in_features=2048, out_features=512, bias=True)\n          (6): Permute()\n        )\n        (stochastic_depth): StochasticDepth(p=0.2, mode=row)\n      )\n      (9): CNBlock(\n        (block): Sequential(\n          (0): Conv2d(512, 512, kernel_size=(7, 7), stride=(1, 1), padding=(3, 3), groups=512)\n          (1): Permute()\n          (2): LayerNorm((512,), eps=1e-06, elementwise_affine=True)\n          (3): Linear(in_features=512, out_features=2048, bias=True)\n          (4): GELU(approximate='none')\n          (5): Linear(in_features=2048, out_features=512, bias=True)\n          (6): Permute()\n        )\n        (stochastic_depth): StochasticDepth(p=0.21428571428571427, mode=row)\n      )\n      (10): CNBlock(\n        (block): Sequential(\n          (0): Conv2d(512, 512, kernel_size=(7, 7), stride=(1, 1), padding=(3, 3), groups=512)\n          (1): Permute()\n          (2): LayerNorm((512,), eps=1e-06, elementwise_affine=True)\n          (3): Linear(in_features=512, out_features=2048, bias=True)\n          (4): GELU(approximate='none')\n          (5): Linear(in_features=2048, out_features=512, bias=True)\n          (6): Permute()\n        )\n        (stochastic_depth): StochasticDepth(p=0.22857142857142856, mode=row)\n      )\n      (11): CNBlock(\n        (block): Sequential(\n          (0): Conv2d(512, 512, kernel_size=(7, 7), stride=(1, 1), padding=(3, 3), groups=512)\n          (1): Permute()\n          (2): LayerNorm((512,), eps=1e-06, elementwise_affine=True)\n          (3): Linear(in_features=512, out_features=2048, bias=True)\n          (4): GELU(approximate='none')\n          (5): Linear(in_features=2048, out_features=512, bias=True)\n          (6): Permute()\n        )\n        (stochastic_depth): StochasticDepth(p=0.24285714285714285, mode=row)\n      )\n      (12): CNBlock(\n        (block): Sequential(\n          (0): Conv2d(512, 512, kernel_size=(7, 7), stride=(1, 1), padding=(3, 3), groups=512)\n          (1): Permute()\n          (2): LayerNorm((512,), eps=1e-06, elementwise_affine=True)\n          (3): Linear(in_features=512, out_features=2048, bias=True)\n          (4): GELU(approximate='none')\n          (5): Linear(in_features=2048, out_features=512, bias=True)\n          (6): Permute()\n        )\n        (stochastic_depth): StochasticDepth(p=0.2571428571428571, mode=row)\n      )\n      (13): CNBlock(\n        (block): Sequential(\n          (0): Conv2d(512, 512, kernel_size=(7, 7), stride=(1, 1), padding=(3, 3), groups=512)\n          (1): Permute()\n          (2): LayerNorm((512,), eps=1e-06, elementwise_affine=True)\n          (3): Linear(in_features=512, out_features=2048, bias=True)\n          (4): GELU(approximate='none')\n          (5): Linear(in_features=2048, out_features=512, bias=True)\n          (6): Permute()\n        )\n        (stochastic_depth): StochasticDepth(p=0.2714285714285714, mode=row)\n      )\n      (14): CNBlock(\n        (block): Sequential(\n          (0): Conv2d(512, 512, kernel_size=(7, 7), stride=(1, 1), padding=(3, 3), groups=512)\n          (1): Permute()\n          (2): LayerNorm((512,), eps=1e-06, elementwise_affine=True)\n          (3): Linear(in_features=512, out_features=2048, bias=True)\n          (4): GELU(approximate='none')\n          (5): Linear(in_features=2048, out_features=512, bias=True)\n          (6): Permute()\n        )\n        (stochastic_depth): StochasticDepth(p=0.2857142857142857, mode=row)\n      )\n      (15): CNBlock(\n        (block): Sequential(\n          (0): Conv2d(512, 512, kernel_size=(7, 7), stride=(1, 1), padding=(3, 3), groups=512)\n          (1): Permute()\n          (2): LayerNorm((512,), eps=1e-06, elementwise_affine=True)\n          (3): Linear(in_features=512, out_features=2048, bias=True)\n          (4): GELU(approximate='none')\n          (5): Linear(in_features=2048, out_features=512, bias=True)\n          (6): Permute()\n        )\n        (stochastic_depth): StochasticDepth(p=0.3, mode=row)\n      )\n      (16): CNBlock(\n        (block): Sequential(\n          (0): Conv2d(512, 512, kernel_size=(7, 7), stride=(1, 1), padding=(3, 3), groups=512)\n          (1): Permute()\n          (2): LayerNorm((512,), eps=1e-06, elementwise_affine=True)\n          (3): Linear(in_features=512, out_features=2048, bias=True)\n          (4): GELU(approximate='none')\n          (5): Linear(in_features=2048, out_features=512, bias=True)\n          (6): Permute()\n        )\n        (stochastic_depth): StochasticDepth(p=0.3142857142857143, mode=row)\n      )\n      (17): CNBlock(\n        (block): Sequential(\n          (0): Conv2d(512, 512, kernel_size=(7, 7), stride=(1, 1), padding=(3, 3), groups=512)\n          (1): Permute()\n          (2): LayerNorm((512,), eps=1e-06, elementwise_affine=True)\n          (3): Linear(in_features=512, out_features=2048, bias=True)\n          (4): GELU(approximate='none')\n          (5): Linear(in_features=2048, out_features=512, bias=True)\n          (6): Permute()\n        )\n        (stochastic_depth): StochasticDepth(p=0.32857142857142857, mode=row)\n      )\n      (18): CNBlock(\n        (block): Sequential(\n          (0): Conv2d(512, 512, kernel_size=(7, 7), stride=(1, 1), padding=(3, 3), groups=512)\n          (1): Permute()\n          (2): LayerNorm((512,), eps=1e-06, elementwise_affine=True)\n          (3): Linear(in_features=512, out_features=2048, bias=True)\n          (4): GELU(approximate='none')\n          (5): Linear(in_features=2048, out_features=512, bias=True)\n          (6): Permute()\n        )\n        (stochastic_depth): StochasticDepth(p=0.34285714285714286, mode=row)\n      )\n      (19): CNBlock(\n        (block): Sequential(\n          (0): Conv2d(512, 512, kernel_size=(7, 7), stride=(1, 1), padding=(3, 3), groups=512)\n          (1): Permute()\n          (2): LayerNorm((512,), eps=1e-06, elementwise_affine=True)\n          (3): Linear(in_features=512, out_features=2048, bias=True)\n          (4): GELU(approximate='none')\n          (5): Linear(in_features=2048, out_features=512, bias=True)\n          (6): Permute()\n        )\n        (stochastic_depth): StochasticDepth(p=0.35714285714285715, mode=row)\n      )\n      (20): CNBlock(\n        (block): Sequential(\n          (0): Conv2d(512, 512, kernel_size=(7, 7), stride=(1, 1), padding=(3, 3), groups=512)\n          (1): Permute()\n          (2): LayerNorm((512,), eps=1e-06, elementwise_affine=True)\n          (3): Linear(in_features=512, out_features=2048, bias=True)\n          (4): GELU(approximate='none')\n          (5): Linear(in_features=2048, out_features=512, bias=True)\n          (6): Permute()\n        )\n        (stochastic_depth): StochasticDepth(p=0.37142857142857144, mode=row)\n      )\n      (21): CNBlock(\n        (block): Sequential(\n          (0): Conv2d(512, 512, kernel_size=(7, 7), stride=(1, 1), padding=(3, 3), groups=512)\n          (1): Permute()\n          (2): LayerNorm((512,), eps=1e-06, elementwise_affine=True)\n          (3): Linear(in_features=512, out_features=2048, bias=True)\n          (4): GELU(approximate='none')\n          (5): Linear(in_features=2048, out_features=512, bias=True)\n          (6): Permute()\n        )\n        (stochastic_depth): StochasticDepth(p=0.38571428571428573, mode=row)\n      )\n      (22): CNBlock(\n        (block): Sequential(\n          (0): Conv2d(512, 512, kernel_size=(7, 7), stride=(1, 1), padding=(3, 3), groups=512)\n          (1): Permute()\n          (2): LayerNorm((512,), eps=1e-06, elementwise_affine=True)\n          (3): Linear(in_features=512, out_features=2048, bias=True)\n          (4): GELU(approximate='none')\n          (5): Linear(in_features=2048, out_features=512, bias=True)\n          (6): Permute()\n        )\n        (stochastic_depth): StochasticDepth(p=0.4, mode=row)\n      )\n      (23): CNBlock(\n        (block): Sequential(\n          (0): Conv2d(512, 512, kernel_size=(7, 7), stride=(1, 1), padding=(3, 3), groups=512)\n          (1): Permute()\n          (2): LayerNorm((512,), eps=1e-06, elementwise_affine=True)\n          (3): Linear(in_features=512, out_features=2048, bias=True)\n          (4): GELU(approximate='none')\n          (5): Linear(in_features=2048, out_features=512, bias=True)\n          (6): Permute()\n        )\n        (stochastic_depth): StochasticDepth(p=0.4142857142857143, mode=row)\n      )\n      (24): CNBlock(\n        (block): Sequential(\n          (0): Conv2d(512, 512, kernel_size=(7, 7), stride=(1, 1), padding=(3, 3), groups=512)\n          (1): Permute()\n          (2): LayerNorm((512,), eps=1e-06, elementwise_affine=True)\n          (3): Linear(in_features=512, out_features=2048, bias=True)\n          (4): GELU(approximate='none')\n          (5): Linear(in_features=2048, out_features=512, bias=True)\n          (6): Permute()\n        )\n        (stochastic_depth): StochasticDepth(p=0.42857142857142855, mode=row)\n      )\n      (25): CNBlock(\n        (block): Sequential(\n          (0): Conv2d(512, 512, kernel_size=(7, 7), stride=(1, 1), padding=(3, 3), groups=512)\n          (1): Permute()\n          (2): LayerNorm((512,), eps=1e-06, elementwise_affine=True)\n          (3): Linear(in_features=512, out_features=2048, bias=True)\n          (4): GELU(approximate='none')\n          (5): Linear(in_features=2048, out_features=512, bias=True)\n          (6): Permute()\n        )\n        (stochastic_depth): StochasticDepth(p=0.44285714285714284, mode=row)\n      )\n      (26): CNBlock(\n        (block): Sequential(\n          (0): Conv2d(512, 512, kernel_size=(7, 7), stride=(1, 1), padding=(3, 3), groups=512)\n          (1): Permute()\n          (2): LayerNorm((512,), eps=1e-06, elementwise_affine=True)\n          (3): Linear(in_features=512, out_features=2048, bias=True)\n          (4): GELU(approximate='none')\n          (5): Linear(in_features=2048, out_features=512, bias=True)\n          (6): Permute()\n        )\n        (stochastic_depth): StochasticDepth(p=0.45714285714285713, mode=row)\n      )\n    )\n    (6): Sequential(\n      (0): LayerNorm2d((512,), eps=1e-06, elementwise_affine=True)\n      (1): Conv2d(512, 1024, kernel_size=(2, 2), stride=(2, 2))\n    )\n    (7): Sequential(\n      (0): CNBlock(\n        (block): Sequential(\n          (0): Conv2d(1024, 1024, kernel_size=(7, 7), stride=(1, 1), padding=(3, 3), groups=1024)\n          (1): Permute()\n          (2): LayerNorm((1024,), eps=1e-06, elementwise_affine=True)\n          (3): Linear(in_features=1024, out_features=4096, bias=True)\n          (4): GELU(approximate='none')\n          (5): Linear(in_features=4096, out_features=1024, bias=True)\n          (6): Permute()\n        )\n        (stochastic_depth): StochasticDepth(p=0.4714285714285714, mode=row)\n      )\n      (1): CNBlock(\n        (block): Sequential(\n          (0): Conv2d(1024, 1024, kernel_size=(7, 7), stride=(1, 1), padding=(3, 3), groups=1024)\n          (1): Permute()\n          (2): LayerNorm((1024,), eps=1e-06, elementwise_affine=True)\n          (3): Linear(in_features=1024, out_features=4096, bias=True)\n          (4): GELU(approximate='none')\n          (5): Linear(in_features=4096, out_features=1024, bias=True)\n          (6): Permute()\n        )\n        (stochastic_depth): StochasticDepth(p=0.4857142857142857, mode=row)\n      )\n      (2): CNBlock(\n        (block): Sequential(\n          (0): Conv2d(1024, 1024, kernel_size=(7, 7), stride=(1, 1), padding=(3, 3), groups=1024)\n          (1): Permute()\n          (2): LayerNorm((1024,), eps=1e-06, elementwise_affine=True)\n          (3): Linear(in_features=1024, out_features=4096, bias=True)\n          (4): GELU(approximate='none')\n          (5): Linear(in_features=4096, out_features=1024, bias=True)\n          (6): Permute()\n        )\n        (stochastic_depth): StochasticDepth(p=0.5, mode=row)\n      )\n    )\n  )\n  (avgpool): AdaptiveAvgPool2d(output_size=1)\n  (classifier): Sequential(\n    (0): LayerNorm2d((1024,), eps=1e-06, elementwise_affine=True)\n    (1): Flatten(start_dim=1, end_dim=-1)\n    (2): Linear(in_features=1024, out_features=1000, bias=True)\n  )\n)", "convnext_large": "ConvNeXt(\n  (features): Sequential(\n    (0): Conv2dNormActivation(\n      (0): Conv2d(3, 192, kernel_size=(4, 4), stride=(4, 4))\n      (1): LayerNorm2d((192,), eps=1e-06, elementwise_affine=True)\n    )\n    (1): Sequential(\n      (0): CNBlock(\n        (block): Sequential(\n          (0): Conv2d(192, 192, kernel_size=(7, 7), stride=(1, 1), padding=(3, 3), groups=192)\n          (1): Permute()\n          (2): LayerNorm((192,), eps=1e-06, elementwise_affine=True)\n          (3): Linear(in_features=192, out_features=768, bias=True)\n          (4): GELU(approximate='none')\n          (5): Linear(in_features=768, out_features=192, bias=True)\n          (6): Permute()\n        )\n        (stochastic_depth): StochasticDepth(p=0.0, mode=row)\n      )\n      (1): CNBlock(\n        (block): Sequential(\n          (0): Conv2d(192, 192, kernel_size=(7, 7), stride=(1, 1), padding=(3, 3), groups=192)\n          (1): Permute()\n          (2): LayerNorm((192,), eps=1e-06, elementwise_affine=True)\n          (3): Linear(in_features=192, out_features=768, bias=True)\n          (4): GELU(approximate='none')\n          (5): Linear(in_features=768, out_features=192, bias=True)\n          (6): Permute()\n        )\n        (stochastic_depth): StochasticDepth(p=0.014285714285714285, mode=row)\n      )\n      (2): CNBlock(\n        (block): Sequential(\n          (0): Conv2d(192, 192, kernel_size=(7, 7), stride=(1, 1), padding=(3, 3), groups=192)\n          (1): Permute()\n          (2): LayerNorm((192,), eps=1e-06, elementwise_affine=True)\n          (3): Linear(in_features=192, out_features=768, bias=True)\n          (4): GELU(approximate='none')\n          (5): Linear(in_features=768, out_features=192, bias=True)\n          (6): Permute()\n        )\n        (stochastic_depth): StochasticDepth(p=0.02857142857142857, mode=row)\n      )\n    )\n    (2): Sequential(\n      (0): LayerNorm2d((192,), eps=1e-06, elementwise_affine=True)\n      (1): Conv2d(192, 384, kernel_size=(2, 2), stride=(2, 2))\n    )\n    (3): Sequential(\n      (0): CNBlock(\n        (block): Sequential(\n          (0): Conv2d(384, 384, kernel_size=(7, 7), stride=(1, 1), padding=(3, 3), groups=384)\n          (1): Permute()\n          (2): LayerNorm((384,), eps=1e-06, elementwise_affine=True)\n          (3): Linear(in_features=384, out_features=1536, bias=True)\n          (4): GELU(approximate='none')\n          (5): Linear(in_features=1536, out_features=384, bias=True)\n          (6): Permute()\n        )\n        (stochastic_depth): StochasticDepth(p=0.04285714285714286, mode=row)\n      )\n      (1): CNBlock(\n        (block): Sequential(\n          (0): Conv2d(384, 384, kernel_size=(7, 7), stride=(1, 1), padding=(3, 3), groups=384)\n          (1): Permute()\n          (2): LayerNorm((384,), eps=1e-06, elementwise_affine=True)\n          (3): Linear(in_features=384, out_features=1536, bias=True)\n          (4): GELU(approximate='none')\n          (5): Linear(in_features=1536, out_features=384, bias=True)\n          (6): Permute()\n        )\n        (stochastic_depth): StochasticDepth(p=0.05714285714285714, mode=row)\n      )\n      (2): CNBlock(\n        (block): Sequential(\n          (0): Conv2d(384, 384, kernel_size=(7, 7), stride=(1, 1), padding=(3, 3), groups=384)\n          (1): Permute()\n          (2): LayerNorm((384,), eps=1e-06, elementwise_affine=True)\n          (3): Linear(in_features=384, out_features=1536, bias=True)\n          (4): GELU(approximate='none')\n          (5): Linear(in_features=1536, out_features=384, bias=True)\n          (6): Permute()\n        )\n        (stochastic_depth): StochasticDepth(p=0.07142857142857142, mode=row)\n      )\n    )\n    (4): Sequential(\n      (0): LayerNorm2d((384,), eps=1e-06, elementwise_affine=True)\n      (1): Conv2d(384, 768, kernel_size=(2, 2), stride=(2, 2))\n    )\n    (5): Sequential(\n      (0): CNBlock(\n        (block): Sequential(\n          (0): Conv2d(768, 768, kernel_size=(7, 7), stride=(1, 1), padding=(3, 3), groups=768)\n          (1): Permute()\n          (2): LayerNorm((768,), eps=1e-06, elementwise_affine=True)\n          (3): Linear(in_features=768, out_features=3072, bias=True)\n          (4): GELU(approximate='none')\n          (5): Linear(in_features=3072, out_features=768, bias=True)\n          (6): Permute()\n        )\n        (stochastic_depth): StochasticDepth(p=0.08571428571428572, mode=row)\n      )\n      (1): CNBlock(\n        (block): Sequential(\n          (0): Conv2d(768, 768, kernel_size=(7, 7), stride=(1, 1), padding=(3, 3), groups=768)\n          (1): Permute()\n          (2): LayerNorm((768,), eps=1e-06, elementwise_affine=True)\n          (3): Linear(in_features=768, out_features=3072, bias=True)\n          (4): GELU(approximate='none')\n          (5): Linear(in_features=3072, out_features=768, bias=True)\n          (6): Permute()\n        )\n        (stochastic_depth): StochasticDepth(p=0.1, mode=row)\n      )\n      (2): CNBlock(\n        (block): Sequential(\n          (0): Conv2d(768, 768, kernel_size=(7, 7), stride=(1, 1), padding=(3, 3), groups=768)\n          (1): Permute()\n          (2): LayerNorm((768,), eps=1e-06, elementwise_affine=True)\n          (3): Linear(in_features=768, out_features=3072, bias=True)\n          (4): GELU(approximate='none')\n          (5): Linear(in_features=3072, out_features=768, bias=True)\n          (6): Permute()\n        )\n        (stochastic_depth): StochasticDepth(p=0.11428571428571428, mode=row)\n      )\n      (3): CNBlock(\n        (block): Sequential(\n          (0): Conv2d(768, 768, kernel_size=(7, 7), stride=(1, 1), padding=(3, 3), groups=768)\n          (1): Permute()\n          (2): LayerNorm((768,), eps=1e-06, elementwise_affine=True)\n          (3): Linear(in_features=768, out_features=3072, bias=True)\n          (4): GELU(approximate='none')\n          (5): Linear(in_features=3072, out_features=768, bias=True)\n          (6): Permute()\n        )\n        (stochastic_depth): StochasticDepth(p=0.12857142857142856, mode=row)\n      )\n      (4): CNBlock(\n        (block): Sequential(\n          (0): Conv2d(768, 768, kernel_size=(7, 7), stride=(1, 1), padding=(3, 3), groups=768)\n          (1): Permute()\n          (2): LayerNorm((768,), eps=1e-06, elementwise_affine=True)\n          (3): Linear(in_features=768, out_features=3072, bias=True)\n          (4): GELU(approximate='none')\n          (5): Linear(in_features=3072, out_features=768, bias=True)\n          (6): Permute()\n        )\n        (stochastic_depth): StochasticDepth(p=0.14285714285714285, mode=row)\n      )\n      (5): CNBlock(\n        (block): Sequential(\n          (0): Conv2d(768, 768, kernel_size=(7, 7), stride=(1, 1), padding=(3, 3), groups=768)\n          (1): Permute()\n          (2): LayerNorm((768,), eps=1e-06, elementwise_affine=True)\n          (3): Linear(in_features=768, out_features=3072, bias=True)\n          (4): GELU(approximate='none')\n          (5): Linear(in_features=3072, out_features=768, bias=True)\n          (6): Permute()\n        )\n        (stochastic_depth): StochasticDepth(p=0.15714285714285714, mode=row)\n      )\n      (6): CNBlock(\n        (block): Sequential(\n          (0): Conv2d(768, 768, kernel_size=(7, 7), stride=(1, 1), padding=(3, 3), groups=768)\n          (1): Permute()\n          (2): LayerNorm((768,), eps=1e-06, elementwise_affine=True)\n          (3): Linear(in_features=768, out_features=3072, bias=True)\n          (4): GELU(approximate='none')\n          (5): Linear(in_features=3072, out_features=768, bias=True)\n          (6): Permute()\n        )\n        (stochastic_depth): StochasticDepth(p=0.17142857142857143, mode=row)\n      )\n      (7): CNBlock(\n        (block): Sequential(\n          (0): Conv2d(768, 768, kernel_size=(7, 7), stride=(1, 1), padding=(3, 3), groups=768)\n          (1): Permute()\n          (2): LayerNorm((768,), eps=1e-06, elementwise_affine=True)\n          (3): Linear(in_features=768, out_features=3072, bias=True)\n          (4): GELU(approximate='none')\n          (5): Linear(in_features=3072, out_features=768, bias=True)\n          (6): Permute()\n        )\n        (stochastic_depth): StochasticDepth(p=0.18571428571428572, mode=row)\n      )\n      (8): CNBlock(\n        (block): Sequential(\n          (0): Conv2d(768, 768, kernel_size=(7, 7), stride=(1, 1), padding=(3, 3), groups=768)\n          (1): Permute()\n          (2): LayerNorm((768,), eps=1e-06, elementwise_affine=True)\n          (3): Linear(in_features=768, out_features=3072, bias=True)\n          (4): GELU(approximate='none')\n          (5): Linear(in_features=3072, out_features=768, bias=True)\n          (6): Permute()\n        )\n        (stochastic_depth): StochasticDepth(p=0.2, mode=row)\n      )\n      (9): CNBlock(\n        (block): Sequential(\n          (0): Conv2d(768, 768, kernel_size=(7, 7), stride=(1, 1), padding=(3, 3), groups=768)\n          (1): Permute()\n          (2): LayerNorm((768,), eps=1e-06, elementwise_affine=True)\n          (3): Linear(in_features=768, out_features=3072, bias=True)\n          (4): GELU(approximate='none')\n          (5): Linear(in_features=3072, out_features=768, bias=True)\n          (6): Permute()\n        )\n        (stochastic_depth): StochasticDepth(p=0.21428571428571427, mode=row)\n      )\n      (10): CNBlock(\n        (block): Sequential(\n          (0): Conv2d(768, 768, kernel_size=(7, 7), stride=(1, 1), padding=(3, 3), groups=768)\n          (1): Permute()\n          (2): LayerNorm((768,), eps=1e-06, elementwise_affine=True)\n          (3): Linear(in_features=768, out_features=3072, bias=True)\n          (4): GELU(approximate='none')\n          (5): Linear(in_features=3072, out_features=768, bias=True)\n          (6): Permute()\n        )\n        (stochastic_depth): StochasticDepth(p=0.22857142857142856, mode=row)\n      )\n      (11): CNBlock(\n        (block): Sequential(\n          (0): Conv2d(768, 768, kernel_size=(7, 7), stride=(1, 1), padding=(3, 3), groups=768)\n          (1): Permute()\n          (2): LayerNorm((768,), eps=1e-06, elementwise_affine=True)\n          (3): Linear(in_features=768, out_features=3072, bias=True)\n          (4): GELU(approximate='none')\n          (5): Linear(in_features=3072, out_features=768, bias=True)\n          (6): Permute()\n        )\n        (stochastic_depth): StochasticDepth(p=0.24285714285714285, mode=row)\n      )\n      (12): CNBlock(\n        (block): Sequential(\n          (0): Conv2d(768, 768, kernel_size=(7, 7), stride=(1, 1), padding=(3, 3), groups=768)\n          (1): Permute()\n          (2): LayerNorm((768,), eps=1e-06, elementwise_affine=True)\n          (3): Linear(in_features=768, out_features=3072, bias=True)\n          (4): GELU(approximate='none')\n          (5): Linear(in_features=3072, out_features=768, bias=True)\n          (6): Permute()\n        )\n        (stochastic_depth): StochasticDepth(p=0.2571428571428571, mode=row)\n      )\n      (13): CNBlock(\n        (block): Sequential(\n          (0): Conv2d(768, 768, kernel_size=(7, 7), stride=(1, 1), padding=(3, 3), groups=768)\n          (1): Permute()\n          (2): LayerNorm((768,), eps=1e-06, elementwise_affine=True)\n          (3): Linear(in_features=768, out_features=3072, bias=True)\n          (4): GELU(approximate='none')\n          (5): Linear(in_features=3072, out_features=768, bias=True)\n          (6): Permute()\n        )\n        (stochastic_depth): StochasticDepth(p=0.2714285714285714, mode=row)\n      )\n      (14): CNBlock(\n        (block): Sequential(\n          (0): Conv2d(768, 768, kernel_size=(7, 7), stride=(1, 1), padding=(3, 3), groups=768)\n          (1): Permute()\n          (2): LayerNorm((768,), eps=1e-06, elementwise_affine=True)\n          (3): Linear(in_features=768, out_features=3072, bias=True)\n          (4): GELU(approximate='none')\n          (5): Linear(in_features=3072, out_features=768, bias=True)\n          (6): Permute()\n        )\n        (stochastic_depth): StochasticDepth(p=0.2857142857142857, mode=row)\n      )\n      (15): CNBlock(\n        (block): Sequential(\n          (0): Conv2d(768, 768, kernel_size=(7, 7), stride=(1, 1), padding=(3, 3), groups=768)\n          (1): Permute()\n          (2): LayerNorm((768,), eps=1e-06, elementwise_affine=True)\n          (3): Linear(in_features=768, out_features=3072, bias=True)\n          (4): GELU(approximate='none')\n          (5): Linear(in_features=3072, out_features=768, bias=True)\n          (6): Permute()\n        )\n        (stochastic_depth): StochasticDepth(p=0.3, mode=row)\n      )\n      (16): CNBlock(\n        (block): Sequential(\n          (0): Conv2d(768, 768, kernel_size=(7, 7), stride=(1, 1), padding=(3, 3), groups=768)\n          (1): Permute()\n          (2): LayerNorm((768,), eps=1e-06, elementwise_affine=True)\n          (3): Linear(in_features=768, out_features=3072, bias=True)\n          (4): GELU(approximate='none')\n          (5): Linear(in_features=3072, out_features=768, bias=True)\n          (6): Permute()\n        )\n        (stochastic_depth): StochasticDepth(p=0.3142857142857143, mode=row)\n      )\n      (17): CNBlock(\n        (block): Sequential(\n          (0): Conv2d(768, 768, kernel_size=(7, 7), stride=(1, 1), padding=(3, 3), groups=768)\n          (1): Permute()\n          (2): LayerNorm((768,), eps=1e-06, elementwise_affine=True)\n          (3): Linear(in_features=768, out_features=3072, bias=True)\n          (4): GELU(approximate='none')\n          (5): Linear(in_features=3072, out_features=768, bias=True)\n          (6): Permute()\n        )\n        (stochastic_depth): StochasticDepth(p=0.32857142857142857, mode=row)\n      )\n      (18): CNBlock(\n        (block): Sequential(\n          (0): Conv2d(768, 768, kernel_size=(7, 7), stride=(1, 1), padding=(3, 3), groups=768)\n          (1): Permute()\n          (2): LayerNorm((768,), eps=1e-06, elementwise_affine=True)\n          (3): Linear(in_features=768, out_features=3072, bias=True)\n          (4): GELU(approximate='none')\n          (5): Linear(in_features=3072, out_features=768, bias=True)\n          (6): Permute()\n        )\n        (stochastic_depth): StochasticDepth(p=0.34285714285714286, mode=row)\n      )\n      (19): CNBlock(\n        (block): Sequential(\n          (0): Conv2d(768, 768, kernel_size=(7, 7), stride=(1, 1), padding=(3, 3), groups=768)\n          (1): Permute()\n          (2): LayerNorm((768,), eps=1e-06, elementwise_affine=True)\n          (3): Linear(in_features=768, out_features=3072, bias=True)\n          (4): GELU(approximate='none')\n          (5): Linear(in_features=3072, out_features=768, bias=True)\n          (6): Permute()\n        )\n        (stochastic_depth): StochasticDepth(p=0.35714285714285715, mode=row)\n      )\n      (20): CNBlock(\n        (block): Sequential(\n          (0): Conv2d(768, 768, kernel_size=(7, 7), stride=(1, 1), padding=(3, 3), groups=768)\n          (1): Permute()\n          (2): LayerNorm((768,), eps=1e-06, elementwise_affine=True)\n          (3): Linear(in_features=768, out_features=3072, bias=True)\n          (4): GELU(approximate='none')\n          (5): Linear(in_features=3072, out_features=768, bias=True)\n          (6): Permute()\n        )\n        (stochastic_depth): StochasticDepth(p=0.37142857142857144, mode=row)\n      )\n      (21): CNBlock(\n        (block): Sequential(\n          (0): Conv2d(768, 768, kernel_size=(7, 7), stride=(1, 1), padding=(3, 3), groups=768)\n          (1): Permute()\n          (2): LayerNorm((768,), eps=1e-06, elementwise_affine=True)\n          (3): Linear(in_features=768, out_features=3072, bias=True)\n          (4): GELU(approximate='none')\n          (5): Linear(in_features=3072, out_features=768, bias=True)\n          (6): Permute()\n        )\n        (stochastic_depth): StochasticDepth(p=0.38571428571428573, mode=row)\n      )\n      (22): CNBlock(\n        (block): Sequential(\n          (0): Conv2d(768, 768, kernel_size=(7, 7), stride=(1, 1), padding=(3, 3), groups=768)\n          (1): Permute()\n          (2): LayerNorm((768,), eps=1e-06, elementwise_affine=True)\n          (3): Linear(in_features=768, out_features=3072, bias=True)\n          (4): GELU(approximate='none')\n          (5): Linear(in_features=3072, out_features=768, bias=True)\n          (6): Permute()\n        )\n        (stochastic_depth): StochasticDepth(p=0.4, mode=row)\n      )\n      (23): CNBlock(\n        (block): Sequential(\n          (0): Conv2d(768, 768, kernel_size=(7, 7), stride=(1, 1), padding=(3, 3), groups=768)\n          (1): Permute()\n          (2): LayerNorm((768,), eps=1e-06, elementwise_affine=True)\n          (3): Linear(in_features=768, out_features=3072, bias=True)\n          (4): GELU(approximate='none')\n          (5): Linear(in_features=3072, out_features=768, bias=True)\n          (6): Permute()\n        )\n        (stochastic_depth): StochasticDepth(p=0.4142857142857143, mode=row)\n      )\n      (24): CNBlock(\n        (block): Sequential(\n          (0): Conv2d(768, 768, kernel_size=(7, 7), stride=(1, 1), padding=(3, 3), groups=768)\n          (1): Permute()\n          (2): LayerNorm((768,), eps=1e-06, elementwise_affine=True)\n          (3): Linear(in_features=768, out_features=3072, bias=True)\n          (4): GELU(approximate='none')\n          (5): Linear(in_features=3072, out_features=768, bias=True)\n          (6): Permute()\n        )\n        (stochastic_depth): StochasticDepth(p=0.42857142857142855, mode=row)\n      )\n      (25): CNBlock(\n        (block): Sequential(\n          (0): Conv2d(768, 768, kernel_size=(7, 7), stride=(1, 1), padding=(3, 3), groups=768)\n          (1): Permute()\n          (2): LayerNorm((768,), eps=1e-06, elementwise_affine=True)\n          (3): Linear(in_features=768, out_features=3072, bias=True)\n          (4): GELU(approximate='none')\n          (5): Linear(in_features=3072, out_features=768, bias=True)\n          (6): Permute()\n        )\n        (stochastic_depth): StochasticDepth(p=0.44285714285714284, mode=row)\n      )\n      (26): CNBlock(\n        (block): Sequential(\n          (0): Conv2d(768, 768, kernel_size=(7, 7), stride=(1, 1), padding=(3, 3), groups=768)\n          (1): Permute()\n          (2): LayerNorm((768,), eps=1e-06, elementwise_affine=True)\n          (3): Linear(in_features=768, out_features=3072, bias=True)\n          (4): GELU(approximate='none')\n          (5): Linear(in_features=3072, out_features=768, bias=True)\n          (6): Permute()\n        )\n        (stochastic_depth): StochasticDepth(p=0.45714285714285713, mode=row)\n      )\n    )\n    (6): Sequential(\n      (0): LayerNorm2d((768,), eps=1e-06, elementwise_affine=True)\n      (1): Conv2d(768, 1536, kernel_size=(2, 2), stride=(2, 2))\n    )\n    (7): Sequential(\n      (0): CNBlock(\n        (block): Sequential(\n          (0): Conv2d(1536, 1536, kernel_size=(7, 7), stride=(1, 1), padding=(3, 3), groups=1536)\n          (1): Permute()\n          (2): LayerNorm((1536,), eps=1e-06, elementwise_affine=True)\n          (3): Linear(in_features=1536, out_features=6144, bias=True)\n          (4): GELU(approximate='none')\n          (5): Linear(in_features=6144, out_features=1536, bias=True)\n          (6): Permute()\n        )\n        (stochastic_depth): StochasticDepth(p=0.4714285714285714, mode=row)\n      )\n      (1): CNBlock(\n        (block): Sequential(\n          (0): Conv2d(1536, 1536, kernel_size=(7, 7), stride=(1, 1), padding=(3, 3), groups=1536)\n          (1): Permute()\n          (2): LayerNorm((1536,), eps=1e-06, elementwise_affine=True)\n          (3): Linear(in_features=1536, out_features=6144, bias=True)\n          (4): GELU(approximate='none')\n          (5): Linear(in_features=6144, out_features=1536, bias=True)\n          (6): Permute()\n        )\n        (stochastic_depth): StochasticDepth(p=0.4857142857142857, mode=row)\n      )\n      (2): CNBlock(\n        (block): Sequential(\n          (0): Conv2d(1536, 1536, kernel_size=(7, 7), stride=(1, 1), padding=(3, 3), groups=1536)\n          (1): Permute()\n          (2): LayerNorm((1536,), eps=1e-06, elementwise_affine=True)\n          (3): Linear(in_features=1536, out_features=6144, bias=True)\n          (4): GELU(approximate='none')\n          (5): Linear(in_features=6144, out_features=1536, bias=True)\n          (6): Permute()\n        )\n        (stochastic_depth): StochasticDepth(p=0.5, mode=row)\n      )\n    )\n  )\n  (avgpool): AdaptiveAvgPool2d(output_size=1)\n  (classifier): Sequential(\n    (0): LayerNorm2d((1536,), eps=1e-06, elementwise_affine=True)\n    (1): Flatten(start_dim=1, end_dim=-1)\n    (2): Linear(in_features=1536, out_features=1000, bias=True)\n  )\n)", "convnext_small": "ConvNeXt(\n  (features): Sequential(\n    (0): Conv2dNormActivation(\n      (0): Conv2d(3, 96, kernel_size=(4, 4), stride=(4, 4))\n      (1): LayerNorm2d((96,), eps=1e-06, elementwise_affine=True)\n    )\n    (1): Sequential(\n      (0): CNBlock(\n        (block): Sequential(\n          (0): Conv2d(96, 96, kernel_size=(7, 7), stride=(1, 1), padding=(3, 3), groups=96)\n          (1): Permute()\n          (2): LayerNorm((96,), eps=1e-06, elementwise_affine=True)\n          (3): Linear(in_features=96, out_features=384, bias=True)\n          (4): GELU(approximate='none')\n          (5): Linear(in_features=384, out_features=96, bias=True)\n          (6): Permute()\n        )\n        (stochastic_depth): StochasticDepth(p=0.0, mode=row)\n      )\n      (1): CNBlock(\n        (block): Sequential(\n          (0): Conv2d(96, 96, kernel_size=(7, 7), stride=(1, 1), padding=(3, 3), groups=96)\n          (1): Permute()\n          (2): LayerNorm((96,), eps=1e-06, elementwise_affine=True)\n          (3): Linear(in_features=96, out_features=384, bias=True)\n          (4): GELU(approximate='none')\n          (5): Linear(in_features=384, out_features=96, bias=True)\n          (6): Permute()\n        )\n        (stochastic_depth): StochasticDepth(p=0.011428571428571429, mode=row)\n      )\n      (2): CNBlock(\n        (block): Sequential(\n          (0): Conv2d(96, 96, kernel_size=(7, 7), stride=(1, 1), padding=(3, 3), groups=96)\n          (1): Permute()\n          (2): LayerNorm((96,), eps=1e-06, elementwise_affine=True)\n          (3): Linear(in_features=96, out_features=384, bias=True)\n          (4): GELU(approximate='none')\n          (5): Linear(in_features=384, out_features=96, bias=True)\n          (6): Permute()\n        )\n        (stochastic_depth): StochasticDepth(p=0.022857142857142857, mode=row)\n      )\n    )\n    (2): Sequential(\n      (0): LayerNorm2d((96,), eps=1e-06, elementwise_affine=True)\n      (1): Conv2d(96, 192, kernel_size=(2, 2), stride=(2, 2))\n    )\n    (3): Sequential(\n      (0): CNBlock(\n        (block): Sequential(\n          (0): Conv2d(192, 192, kernel_size=(7, 7), stride=(1, 1), padding=(3, 3), groups=192)\n          (1): Permute()\n          (2): LayerNorm((192,), eps=1e-06, elementwise_affine=True)\n          (3): Linear(in_features=192, out_features=768, bias=True)\n          (4): GELU(approximate='none')\n          (5): Linear(in_features=768, out_features=192, bias=True)\n          (6): Permute()\n        )\n        (stochastic_depth): StochasticDepth(p=0.03428571428571429, mode=row)\n      )\n      (1): CNBlock(\n        (block): Sequential(\n          (0): Conv2d(192, 192, kernel_size=(7, 7), stride=(1, 1), padding=(3, 3), groups=192)\n          (1): Permute()\n          (2): LayerNorm((192,), eps=1e-06, elementwise_affine=True)\n          (3): Linear(in_features=192, out_features=768, bias=True)\n          (4): GELU(approximate='none')\n          (5): Linear(in_features=768, out_features=192, bias=True)\n          (6): Permute()\n        )\n        (stochastic_depth): StochasticDepth(p=0.045714285714285714, mode=row)\n      )\n      (2): CNBlock(\n        (block): Sequential(\n          (0): Conv2d(192, 192, kernel_size=(7, 7), stride=(1, 1), padding=(3, 3), groups=192)\n          (1): Permute()\n          (2): LayerNorm((192,), eps=1e-06, elementwise_affine=True)\n          (3): Linear(in_features=192, out_features=768, bias=True)\n          (4): GELU(approximate='none')\n          (5): Linear(in_features=768, out_features=192, bias=True)\n          (6): Permute()\n        )\n        (stochastic_depth): StochasticDepth(p=0.05714285714285714, mode=row)\n      )\n    )\n    (4): Sequential(\n      (0): LayerNorm2d((192,), eps=1e-06, elementwise_affine=True)\n      (1): Conv2d(192, 384, kernel_size=(2, 2), stride=(2, 2))\n    )\n    (5): Sequential(\n      (0): CNBlock(\n        (block): Sequential(\n          (0): Conv2d(384, 384, kernel_size=(7, 7), stride=(1, 1), padding=(3, 3), groups=384)\n          (1): Permute()\n          (2): LayerNorm((384,), eps=1e-06, elementwise_affine=True)\n          (3): Linear(in_features=384, out_features=1536, bias=True)\n          (4): GELU(approximate='none')\n          (5): Linear(in_features=1536, out_features=384, bias=True)\n          (6): Permute()\n        )\n        (stochastic_depth): StochasticDepth(p=0.06857142857142857, mode=row)\n      )\n      (1): CNBlock(\n        (block): Sequential(\n          (0): Conv2d(384, 384, kernel_size=(7, 7), stride=(1, 1), padding=(3, 3), groups=384)\n          (1): Permute()\n          (2): LayerNorm((384,), eps=1e-06, elementwise_affine=True)\n          (3): Linear(in_features=384, out_features=1536, bias=True)\n          (4): GELU(approximate='none')\n          (5): Linear(in_features=1536, out_features=384, bias=True)\n          (6): Permute()\n        )\n        (stochastic_depth): StochasticDepth(p=0.08, mode=row)\n      )\n      (2): CNBlock(\n        (block): Sequential(\n          (0): Conv2d(384, 384, kernel_size=(7, 7), stride=(1, 1), padding=(3, 3), groups=384)\n          (1): Permute()\n          (2): LayerNorm((384,), eps=1e-06, elementwise_affine=True)\n          (3): Linear(in_features=384, out_features=1536, bias=True)\n          (4): GELU(approximate='none')\n          (5): Linear(in_features=1536, out_features=384, bias=True)\n          (6): Permute()\n        )\n        (stochastic_depth): StochasticDepth(p=0.09142857142857143, mode=row)\n      )\n      (3): CNBlock(\n        (block): Sequential(\n          (0): Conv2d(384, 384, kernel_size=(7, 7), stride=(1, 1), padding=(3, 3), groups=384)\n          (1): Permute()\n          (2): LayerNorm((384,), eps=1e-06, elementwise_affine=True)\n          (3): Linear(in_features=384, out_features=1536, bias=True)\n          (4): GELU(approximate='none')\n          (5): Linear(in_features=1536, out_features=384, bias=True)\n          (6): Permute()\n        )\n        (stochastic_depth): StochasticDepth(p=0.10285714285714286, mode=row)\n      )\n      (4): CNBlock(\n        (block): Sequential(\n          (0): Conv2d(384, 384, kernel_size=(7, 7), stride=(1, 1), padding=(3, 3), groups=384)\n          (1): Permute()\n          (2): LayerNorm((384,), eps=1e-06, elementwise_affine=True)\n          (3): Linear(in_features=384, out_features=1536, bias=True)\n          (4): GELU(approximate='none')\n          (5): Linear(in_features=1536, out_features=384, bias=True)\n          (6): Permute()\n        )\n        (stochastic_depth): StochasticDepth(p=0.11428571428571428, mode=row)\n      )\n      (5): CNBlock(\n        (block): Sequential(\n          (0): Conv2d(384, 384, kernel_size=(7, 7), stride=(1, 1), padding=(3, 3), groups=384)\n          (1): Permute()\n          (2): LayerNorm((384,), eps=1e-06, elementwise_affine=True)\n          (3): Linear(in_features=384, out_features=1536, bias=True)\n          (4): GELU(approximate='none')\n          (5): Linear(in_features=1536, out_features=384, bias=True)\n          (6): Permute()\n        )\n        (stochastic_depth): StochasticDepth(p=0.12571428571428572, mode=row)\n      )\n      (6): CNBlock(\n        (block): Sequential(\n          (0): Conv2d(384, 384, kernel_size=(7, 7), stride=(1, 1), padding=(3, 3), groups=384)\n          (1): Permute()\n          (2): LayerNorm((384,), eps=1e-06, elementwise_affine=True)\n          (3): Linear(in_features=384, out_features=1536, bias=True)\n          (4): GELU(approximate='none')\n          (5): Linear(in_features=1536, out_features=384, bias=True)\n          (6): Permute()\n        )\n        (stochastic_depth): StochasticDepth(p=0.13714285714285715, mode=row)\n      )\n      (7): CNBlock(\n        (block): Sequential(\n          (0): Conv2d(384, 384, kernel_size=(7, 7), stride=(1, 1), padding=(3, 3), groups=384)\n          (1): Permute()\n          (2): LayerNorm((384,), eps=1e-06, elementwise_affine=True)\n          (3): Linear(in_features=384, out_features=1536, bias=True)\n          (4): GELU(approximate='none')\n          (5): Linear(in_features=1536, out_features=384, bias=True)\n          (6): Permute()\n        )\n        (stochastic_depth): StochasticDepth(p=0.14857142857142858, mode=row)\n      )\n      (8): CNBlock(\n        (block): Sequential(\n          (0): Conv2d(384, 384, kernel_size=(7, 7), stride=(1, 1), padding=(3, 3), groups=384)\n          (1): Permute()\n          (2): LayerNorm((384,), eps=1e-06, elementwise_affine=True)\n          (3): Linear(in_features=384, out_features=1536, bias=True)\n          (4): GELU(approximate='none')\n          (5): Linear(in_features=1536, out_features=384, bias=True)\n          (6): Permute()\n        )\n        (stochastic_depth): StochasticDepth(p=0.16, mode=row)\n      )\n      (9): CNBlock(\n        (block): Sequential(\n          (0): Conv2d(384, 384, kernel_size=(7, 7), stride=(1, 1), padding=(3, 3), groups=384)\n          (1): Permute()\n          (2): LayerNorm((384,), eps=1e-06, elementwise_affine=True)\n          (3): Linear(in_features=384, out_features=1536, bias=True)\n          (4): GELU(approximate='none')\n          (5): Linear(in_features=1536, out_features=384, bias=True)\n          (6): Permute()\n        )\n        (stochastic_depth): StochasticDepth(p=0.17142857142857143, mode=row)\n      )\n      (10): CNBlock(\n        (block): Sequential(\n          (0): Conv2d(384, 384, kernel_size=(7, 7), stride=(1, 1), padding=(3, 3), groups=384)\n          (1): Permute()\n          (2): LayerNorm((384,), eps=1e-06, elementwise_affine=True)\n          (3): Linear(in_features=384, out_features=1536, bias=True)\n          (4): GELU(approximate='none')\n          (5): Linear(in_features=1536, out_features=384, bias=True)\n          (6): Permute()\n        )\n        (stochastic_depth): StochasticDepth(p=0.18285714285714286, mode=row)\n      )\n      (11): CNBlock(\n        (block): Sequential(\n          (0): Conv2d(384, 384, kernel_size=(7, 7), stride=(1, 1), padding=(3, 3), groups=384)\n          (1): Permute()\n          (2): LayerNorm((384,), eps=1e-06, elementwise_affine=True)\n          (3): Linear(in_features=384, out_features=1536, bias=True)\n          (4): GELU(approximate='none')\n          (5): Linear(in_features=1536, out_features=384, bias=True)\n          (6): Permute()\n        )\n        (stochastic_depth): StochasticDepth(p=0.1942857142857143, mode=row)\n      )\n      (12): CNBlock(\n        (block): Sequential(\n          (0): Conv2d(384, 384, kernel_size=(7, 7), stride=(1, 1), padding=(3, 3), groups=384)\n          (1): Permute()\n          (2): LayerNorm((384,), eps=1e-06, elementwise_affine=True)\n          (3): Linear(in_features=384, out_features=1536, bias=True)\n          (4): GELU(approximate='none')\n          (5): Linear(in_features=1536, out_features=384, bias=True)\n          (6): Permute()\n        )\n        (stochastic_depth): StochasticDepth(p=0.2057142857142857, mode=row)\n      )\n      (13): CNBlock(\n        (block): Sequential(\n          (0): Conv2d(384, 384, kernel_size=(7, 7), stride=(1, 1), padding=(3, 3), groups=384)\n          (1): Permute()\n          (2): LayerNorm((384,), eps=1e-06, elementwise_affine=True)\n          (3): Linear(in_features=384, out_features=1536, bias=True)\n          (4): GELU(approximate='none')\n          (5): Linear(in_features=1536, out_features=384, bias=True)\n          (6): Permute()\n        )\n        (stochastic_depth): StochasticDepth(p=0.21714285714285717, mode=row)\n      )\n      (14): CNBlock(\n        (block): Sequential(\n          (0): Conv2d(384, 384, kernel_size=(7, 7), stride=(1, 1), padding=(3, 3), groups=384)\n          (1): Permute()\n          (2): LayerNorm((384,), eps=1e-06, elementwise_affine=True)\n          (3): Linear(in_features=384, out_features=1536, bias=True)\n          (4): GELU(approximate='none')\n          (5): Linear(in_features=1536, out_features=384, bias=True)\n          (6): Permute()\n        )\n        (stochastic_depth): StochasticDepth(p=0.22857142857142856, mode=row)\n      )\n      (15): CNBlock(\n        (block): Sequential(\n          (0): Conv2d(384, 384, kernel_size=(7, 7), stride=(1, 1), padding=(3, 3), groups=384)\n          (1): Permute()\n          (2): LayerNorm((384,), eps=1e-06, elementwise_affine=True)\n          (3): Linear(in_features=384, out_features=1536, bias=True)\n          (4): GELU(approximate='none')\n          (5): Linear(in_features=1536, out_features=384, bias=True)\n          (6): Permute()\n        )\n        (stochastic_depth): StochasticDepth(p=0.24000000000000002, mode=row)\n      )\n      (16): CNBlock(\n        (block): Sequential(\n          (0): Conv2d(384, 384, kernel_size=(7, 7), stride=(1, 1), padding=(3, 3), groups=384)\n          (1): Permute()\n          (2): LayerNorm((384,), eps=1e-06, elementwise_affine=True)\n          (3): Linear(in_features=384, out_features=1536, bias=True)\n          (4): GELU(approximate='none')\n          (5): Linear(in_features=1536, out_features=384, bias=True)\n          (6): Permute()\n        )\n        (stochastic_depth): StochasticDepth(p=0.25142857142857145, mode=row)\n      )\n      (17): CNBlock(\n        (block): Sequential(\n          (0): Conv2d(384, 384, kernel_size=(7, 7), stride=(1, 1), padding=(3, 3), groups=384)\n          (1): Permute()\n          (2): LayerNorm((384,), eps=1e-06, elementwise_affine=True)\n          (3): Linear(in_features=384, out_features=1536, bias=True)\n          (4): GELU(approximate='none')\n          (5): Linear(in_features=1536, out_features=384, bias=True)\n          (6): Permute()\n        )\n        (stochastic_depth): StochasticDepth(p=0.2628571428571429, mode=row)\n      )\n      (18): CNBlock(\n        (block): Sequential(\n          (0): Conv2d(384, 384, kernel_size=(7, 7), stride=(1, 1), padding=(3, 3), groups=384)\n          (1): Permute()\n          (2): LayerNorm((384,), eps=1e-06, elementwise_affine=True)\n          (3): Linear(in_features=384, out_features=1536, bias=True)\n          (4): GELU(approximate='none')\n          (5): Linear(in_features=1536, out_features=384, bias=True)\n          (6): Permute()\n        )\n        (stochastic_depth): StochasticDepth(p=0.2742857142857143, mode=row)\n      )\n      (19): CNBlock(\n        (block): Sequential(\n          (0): Conv2d(384, 384, kernel_size=(7, 7), stride=(1, 1), padding=(3, 3), groups=384)\n          (1): Permute()\n          (2): LayerNorm((384,), eps=1e-06, elementwise_affine=True)\n          (3): Linear(in_features=384, out_features=1536, bias=True)\n          (4): GELU(approximate='none')\n          (5): Linear(in_features=1536, out_features=384, bias=True)\n          (6): Permute()\n        )\n        (stochastic_depth): StochasticDepth(p=0.2857142857142857, mode=row)\n      )\n      (20): CNBlock(\n        (block): Sequential(\n          (0): Conv2d(384, 384, kernel_size=(7, 7), stride=(1, 1), padding=(3, 3), groups=384)\n          (1): Permute()\n          (2): LayerNorm((384,), eps=1e-06, elementwise_affine=True)\n          (3): Linear(in_features=384, out_features=1536, bias=True)\n          (4): GELU(approximate='none')\n          (5): Linear(in_features=1536, out_features=384, bias=True)\n          (6): Permute()\n        )\n        (stochastic_depth): StochasticDepth(p=0.29714285714285715, mode=row)\n      )\n      (21): CNBlock(\n        (block): Sequential(\n          (0): Conv2d(384, 384, kernel_size=(7, 7), stride=(1, 1), padding=(3, 3), groups=384)\n          (1): Permute()\n          (2): LayerNorm((384,), eps=1e-06, elementwise_affine=True)\n          (3): Linear(in_features=384, out_features=1536, bias=True)\n          (4): GELU(approximate='none')\n          (5): Linear(in_features=1536, out_features=384, bias=True)\n          (6): Permute()\n        )\n        (stochastic_depth): StochasticDepth(p=0.3085714285714286, mode=row)\n      )\n      (22): CNBlock(\n        (block): Sequential(\n          (0): Conv2d(384, 384, kernel_size=(7, 7), stride=(1, 1), padding=(3, 3), groups=384)\n          (1): Permute()\n          (2): LayerNorm((384,), eps=1e-06, elementwise_affine=True)\n          (3): Linear(in_features=384, out_features=1536, bias=True)\n          (4): GELU(approximate='none')\n          (5): Linear(in_features=1536, out_features=384, bias=True)\n          (6): Permute()\n        )\n        (stochastic_depth): StochasticDepth(p=0.32, mode=row)\n      )\n      (23): CNBlock(\n        (block): Sequential(\n          (0): Conv2d(384, 384, kernel_size=(7, 7), stride=(1, 1), padding=(3, 3), groups=384)\n          (1): Permute()\n          (2): LayerNorm((384,), eps=1e-06, elementwise_affine=True)\n          (3): Linear(in_features=384, out_features=1536, bias=True)\n          (4): GELU(approximate='none')\n          (5): Linear(in_features=1536, out_features=384, bias=True)\n          (6): Permute()\n        )\n        (stochastic_depth): StochasticDepth(p=0.33142857142857146, mode=row)\n      )\n      (24): CNBlock(\n        (block): Sequential(\n          (0): Conv2d(384, 384, kernel_size=(7, 7), stride=(1, 1), padding=(3, 3), groups=384)\n          (1): Permute()\n          (2): LayerNorm((384,), eps=1e-06, elementwise_affine=True)\n          (3): Linear(in_features=384, out_features=1536, bias=True)\n          (4): GELU(approximate='none')\n          (5): Linear(in_features=1536, out_features=384, bias=True)\n          (6): Permute()\n        )\n        (stochastic_depth): StochasticDepth(p=0.34285714285714286, mode=row)\n      )\n      (25): CNBlock(\n        (block): Sequential(\n          (0): Conv2d(384, 384, kernel_size=(7, 7), stride=(1, 1), padding=(3, 3), groups=384)\n          (1): Permute()\n          (2): LayerNorm((384,), eps=1e-06, elementwise_affine=True)\n          (3): Linear(in_features=384, out_features=1536, bias=True)\n          (4): GELU(approximate='none')\n          (5): Linear(in_features=1536, out_features=384, bias=True)\n          (6): Permute()\n        )\n        (stochastic_depth): StochasticDepth(p=0.3542857142857143, mode=row)\n      )\n      (26): CNBlock(\n        (block): Sequential(\n          (0): Conv2d(384, 384, kernel_size=(7, 7), stride=(1, 1), padding=(3, 3), groups=384)\n          (1): Permute()\n          (2): LayerNorm((384,), eps=1e-06, elementwise_affine=True)\n          (3): Linear(in_features=384, out_features=1536, bias=True)\n          (4): GELU(approximate='none')\n          (5): Linear(in_features=1536, out_features=384, bias=True)\n          (6): Permute()\n        )\n        (stochastic_depth): StochasticDepth(p=0.3657142857142857, mode=row)\n      )\n    )\n    (6): Sequential(\n      (0): LayerNorm2d((384,), eps=1e-06, elementwise_affine=True)\n      (1): Conv2d(384, 768, kernel_size=(2, 2), stride=(2, 2))\n    )\n    (7): Sequential(\n      (0): CNBlock(\n        (block): Sequential(\n          (0): Conv2d(768, 768, kernel_size=(7, 7), stride=(1, 1), padding=(3, 3), groups=768)\n          (1): Permute()\n          (2): LayerNorm((768,), eps=1e-06, elementwise_affine=True)\n          (3): Linear(in_features=768, out_features=3072, bias=True)\n          (4): GELU(approximate='none')\n          (5): Linear(in_features=3072, out_features=768, bias=True)\n          (6): Permute()\n        )\n        (stochastic_depth): StochasticDepth(p=0.37714285714285717, mode=row)\n      )\n      (1): CNBlock(\n        (block): Sequential(\n          (0): Conv2d(768, 768, kernel_size=(7, 7), stride=(1, 1), padding=(3, 3), groups=768)\n          (1): Permute()\n          (2): LayerNorm((768,), eps=1e-06, elementwise_affine=True)\n          (3): Linear(in_features=768, out_features=3072, bias=True)\n          (4): GELU(approximate='none')\n          (5): Linear(in_features=3072, out_features=768, bias=True)\n          (6): Permute()\n        )\n        (stochastic_depth): StochasticDepth(p=0.3885714285714286, mode=row)\n      )\n      (2): CNBlock(\n        (block): Sequential(\n          (0): Conv2d(768, 768, kernel_size=(7, 7), stride=(1, 1), padding=(3, 3), groups=768)\n          (1): Permute()\n          (2): LayerNorm((768,), eps=1e-06, elementwise_affine=True)\n          (3): Linear(in_features=768, out_features=3072, bias=True)\n          (4): GELU(approximate='none')\n          (5): Linear(in_features=3072, out_features=768, bias=True)\n          (6): Permute()\n        )\n        (stochastic_depth): StochasticDepth(p=0.4, mode=row)\n      )\n    )\n  )\n  (avgpool): AdaptiveAvgPool2d(output_size=1)\n  (classifier): Sequential(\n    (0): LayerNorm2d((768,), eps=1e-06, elementwise_affine=True)\n    (1): Flatten(start_dim=1, end_dim=-1)\n    (2): Linear(in_features=768, out_features=1000, bias=True)\n  )\n)", "convnext_tiny": "ConvNeXt(\n  (features): Sequential(\n    (0): Conv2dNormActivation(\n      (0): Conv2d(3, 96, kernel_size=(4, 4), stride=(4, 4))\n      (1): LayerNorm2d((96,), eps=1e-06, elementwise_affine=True)\n    )\n    (1): Sequential(\n      (0): CNBlock(\n        (block): Sequential(\n          (0): Conv2d(96, 96, kernel_size=(7, 7), stride=(1, 1), padding=(3, 3), groups=96)\n          (1): Permute()\n          (2): LayerNorm((96,), eps=1e-06, elementwise_affine=True)\n          (3): Linear(in_features=96, out_features=384, bias=True)\n          (4): GELU(approximate='none')\n          (5): Linear(in_features=384, out_features=96, bias=True)\n          (6): Permute()\n        )\n        (stochastic_depth): StochasticDepth(p=0.0, mode=row)\n      )\n      (1): CNBlock(\n        (block): Sequential(\n          (0): Conv2d(96, 96, kernel_size=(7, 7), stride=(1, 1), padding=(3, 3), groups=96)\n          (1): Permute()\n          (2): LayerNorm((96,), eps=1e-06, elementwise_affine=True)\n          (3): Linear(in_features=96, out_features=384, bias=True)\n          (4): GELU(approximate='none')\n          (5): Linear(in_features=384, out_features=96, bias=True)\n          (6): Permute()\n        )\n        (stochastic_depth): StochasticDepth(p=0.0058823529411764705, mode=row)\n      )\n      (2): CNBlock(\n        (block): Sequential(\n          (0): Conv2d(96, 96, kernel_size=(7, 7), stride=(1, 1), padding=(3, 3), groups=96)\n          (1): Permute()\n          (2): LayerNorm((96,), eps=1e-06, elementwise_affine=True)\n          (3): Linear(in_features=96, out_features=384, bias=True)\n          (4): GELU(approximate='none')\n          (5): Linear(in_features=384, out_features=96, bias=True)\n          (6): Permute()\n        )\n        (stochastic_depth): StochasticDepth(p=0.011764705882352941, mode=row)\n      )\n    )\n    (2): Sequential(\n      (0): LayerNorm2d((96,), eps=1e-06, elementwise_affine=True)\n      (1): Conv2d(96, 192, kernel_size=(2, 2), stride=(2, 2))\n    )\n    (3): Sequential(\n      (0): CNBlock(\n        (block): Sequential(\n          (0): Conv2d(192, 192, kernel_size=(7, 7), stride=(1, 1), padding=(3, 3), groups=192)\n          (1): Permute()\n          (2): LayerNorm((192,), eps=1e-06, elementwise_affine=True)\n          (3): Linear(in_features=192, out_features=768, bias=True)\n          (4): GELU(approximate='none')\n          (5): Linear(in_features=768, out_features=192, bias=True)\n          (6): Permute()\n        )\n        (stochastic_depth): StochasticDepth(p=0.017647058823529415, mode=row)\n      )\n      (1): CNBlock(\n        (block): Sequential(\n          (0): Conv2d(192, 192, kernel_size=(7, 7), stride=(1, 1), padding=(3, 3), groups=192)\n          (1): Permute()\n          (2): LayerNorm((192,), eps=1e-06, elementwise_affine=True)\n          (3): Linear(in_features=192, out_features=768, bias=True)\n          (4): GELU(approximate='none')\n          (5): Linear(in_features=768, out_features=192, bias=True)\n          (6): Permute()\n        )\n        (stochastic_depth): StochasticDepth(p=0.023529411764705882, mode=row)\n      )\n      (2): CNBlock(\n        (block): Sequential(\n          (0): Conv2d(192, 192, kernel_size=(7, 7), stride=(1, 1), padding=(3, 3), groups=192)\n          (1): Permute()\n          (2): LayerNorm((192,), eps=1e-06, elementwise_affine=True)\n          (3): Linear(in_features=192, out_features=768, bias=True)\n          (4): GELU(approximate='none')\n          (5): Linear(in_features=768, out_features=192, bias=True)\n          (6): Permute()\n        )\n        (stochastic_depth): StochasticDepth(p=0.029411764705882353, mode=row)\n      )\n    )\n    (4): Sequential(\n      (0): LayerNorm2d((192,), eps=1e-06, elementwise_affine=True)\n      (1): Conv2d(192, 384, kernel_size=(2, 2), stride=(2, 2))\n    )\n    (5): Sequential(\n      (0): CNBlock(\n        (block): Sequential(\n          (0): Conv2d(384, 384, kernel_size=(7, 7), stride=(1, 1), padding=(3, 3), groups=384)\n          (1): Permute()\n          (2): LayerNorm((384,), eps=1e-06, elementwise_affine=True)\n          (3): Linear(in_features=384, out_features=1536, bias=True)\n          (4): GELU(approximate='none')\n          (5): Linear(in_features=1536, out_features=384, bias=True)\n          (6): Permute()\n        )\n        (stochastic_depth): StochasticDepth(p=0.03529411764705883, mode=row)\n      )\n      (1): CNBlock(\n        (block): Sequential(\n          (0): Conv2d(384, 384, kernel_size=(7, 7), stride=(1, 1), padding=(3, 3), groups=384)\n          (1): Permute()\n          (2): LayerNorm((384,), eps=1e-06, elementwise_affine=True)\n          (3): Linear(in_features=384, out_features=1536, bias=True)\n          (4): GELU(approximate='none')\n          (5): Linear(in_features=1536, out_features=384, bias=True)\n          (6): Permute()\n        )\n        (stochastic_depth): StochasticDepth(p=0.0411764705882353, mode=row)\n      )\n      (2): CNBlock(\n        (block): Sequential(\n          (0): Conv2d(384, 384, kernel_size=(7, 7), stride=(1, 1), padding=(3, 3), groups=384)\n          (1): Permute()\n          (2): LayerNorm((384,), eps=1e-06, elementwise_affine=True)\n          (3): Linear(in_features=384, out_features=1536, bias=True)\n          (4): GELU(approximate='none')\n          (5): Linear(in_features=1536, out_features=384, bias=True)\n          (6): Permute()\n        )\n        (stochastic_depth): StochasticDepth(p=0.047058823529411764, mode=row)\n      )\n      (3): CNBlock(\n        (block): Sequential(\n          (0): Conv2d(384, 384, kernel_size=(7, 7), stride=(1, 1), padding=(3, 3), groups=384)\n          (1): Permute()\n          (2): LayerNorm((384,), eps=1e-06, elementwise_affine=True)\n          (3): Linear(in_features=384, out_features=1536, bias=True)\n          (4): GELU(approximate='none')\n          (5): Linear(in_features=1536, out_features=384, bias=True)\n          (6): Permute()\n        )\n        (stochastic_depth): StochasticDepth(p=0.052941176470588235, mode=row)\n      )\n      (4): CNBlock(\n        (block): Sequential(\n          (0): Conv2d(384, 384, kernel_size=(7, 7), stride=(1, 1), padding=(3, 3), groups=384)\n          (1): Permute()\n          (2): LayerNorm((384,), eps=1e-06, elementwise_affine=True)\n          (3): Linear(in_features=384, out_features=1536, bias=True)\n          (4): GELU(approximate='none')\n          (5): Linear(in_features=1536, out_features=384, bias=True)\n          (6): Permute()\n        )\n        (stochastic_depth): StochasticDepth(p=0.058823529411764705, mode=row)\n      )\n      (5): CNBlock(\n        (block): Sequential(\n          (0): Conv2d(384, 384, kernel_size=(7, 7), stride=(1, 1), padding=(3, 3), groups=384)\n          (1): Permute()\n          (2): LayerNorm((384,), eps=1e-06, elementwise_affine=True)\n          (3): Linear(in_features=384, out_features=1536, bias=True)\n          (4): GELU(approximate='none')\n          (5): Linear(in_features=1536, out_features=384, bias=True)\n          (6): Permute()\n        )\n        (stochastic_depth): StochasticDepth(p=0.06470588235294118, mode=row)\n      )\n      (6): CNBlock(\n        (block): Sequential(\n          (0): Conv2d(384, 384, kernel_size=(7, 7), stride=(1, 1), padding=(3, 3), groups=384)\n          (1): Permute()\n          (2): LayerNorm((384,), eps=1e-06, elementwise_affine=True)\n          (3): Linear(in_features=384, out_features=1536, bias=True)\n          (4): GELU(approximate='none')\n          (5): Linear(in_features=1536, out_features=384, bias=True)\n          (6): Permute()\n        )\n        (stochastic_depth): StochasticDepth(p=0.07058823529411766, mode=row)\n      )\n      (7): CNBlock(\n        (block): Sequential(\n          (0): Conv2d(384, 384, kernel_size=(7, 7), stride=(1, 1), padding=(3, 3), groups=384)\n          (1): Permute()\n          (2): LayerNorm((384,), eps=1e-06, elementwise_affine=True)\n          (3): Linear(in_features=384, out_features=1536, bias=True)\n          (4): GELU(approximate='none')\n          (5): Linear(in_features=1536, out_features=384, bias=True)\n          (6): Permute()\n        )\n        (stochastic_depth): StochasticDepth(p=0.07647058823529412, mode=row)\n      )\n      (8): CNBlock(\n        (block): Sequential(\n          (0): Conv2d(384, 384, kernel_size=(7, 7), stride=(1, 1), padding=(3, 3), groups=384)\n          (1): Permute()\n          (2): LayerNorm((384,), eps=1e-06, elementwise_affine=True)\n          (3): Linear(in_features=384, out_features=1536, bias=True)\n          (4): GELU(approximate='none')\n          (5): Linear(in_features=1536, out_features=384, bias=True)\n          (6): Permute()\n        )\n        (stochastic_depth): StochasticDepth(p=0.0823529411764706, mode=row)\n      )\n    )\n    (6): Sequential(\n      (0): LayerNorm2d((384,), eps=1e-06, elementwise_affine=True)\n      (1): Conv2d(384, 768, kernel_size=(2, 2), stride=(2, 2))\n    )\n    (7): Sequential(\n      (0): CNBlock(\n        (block): Sequential(\n          (0): Conv2d(768, 768, kernel_size=(7, 7), stride=(1, 1), padding=(3, 3), groups=768)\n          (1): Permute()\n          (2): LayerNorm((768,), eps=1e-06, elementwise_affine=True)\n          (3): Linear(in_features=768, out_features=3072, bias=True)\n          (4): GELU(approximate='none')\n          (5): Linear(in_features=3072, out_features=768, bias=True)\n          (6): Permute()\n        )\n        (stochastic_depth): StochasticDepth(p=0.08823529411764706, mode=row)\n      )\n      (1): CNBlock(\n        (block): Sequential(\n          (0): Conv2d(768, 768, kernel_size=(7, 7), stride=(1, 1), padding=(3, 3), groups=768)\n          (1): Permute()\n          (2): LayerNorm((768,), eps=1e-06, elementwise_affine=True)\n          (3): Linear(in_features=768, out_features=3072, bias=True)\n          (4): GELU(approximate='none')\n          (5): Linear(in_features=3072, out_features=768, bias=True)\n          (6): Permute()\n        )\n        (stochastic_depth): StochasticDepth(p=0.09411764705882353, mode=row)\n      )\n      (2): CNBlock(\n        (block): Sequential(\n          (0): Conv2d(768, 768, kernel_size=(7, 7), stride=(1, 1), padding=(3, 3), groups=768)\n          (1): Permute()\n          (2): LayerNorm((768,), eps=1e-06, elementwise_affine=True)\n          (3): Linear(in_features=768, out_features=3072, bias=True)\n          (4): GELU(approximate='none')\n          (5): Linear(in_features=3072, out_features=768, bias=True)\n          (6): Permute()\n        )\n        (stochastic_depth): StochasticDepth(p=0.1, mode=row)\n      )\n    )\n  )\n  (avgpool): AdaptiveAvgPool2d(output_size=1)\n  (classifier): Sequential(\n    (0): LayerNorm2d((768,), eps=1e-06, elementwise_affine=True)\n    (1): Flatten(start_dim=1, end_dim=-1)\n    (2): Linear(in_features=768, out_features=1000, bias=True)\n  )\n)", "densenet121": "DenseNet(\n  (features): Sequential(\n    (conv0): Conv2d(3, 64, kernel_size=(7, 7), stride=(2, 2), padding=(3, 3), bias=False)\n    (norm0): BatchNorm2d(64, eps=1e-05, momentum=0.1, affine=True, track_running_stats=True)\n    (relu0): ReLU(inplace=True)\n    (pool0): MaxPool2d(kernel_size=3, stride=2, padding=1, dilation=1, ceil_mode=False)\n    (denseblock1): _DenseBlock(\n      (denselayer1): _DenseLayer(\n        (norm1): BatchNorm2d(64, eps=1e-05, momentum=0.1, affine=True, track_running_stats=True)\n        (relu1): ReLU(inplace=True)\n        (conv1): Conv2d(64, 128, kernel_size=(1, 1), stride=(1, 1), bias=False)\n        (norm2): BatchNorm2d(128, eps=1e-05, momentum=0.1, affine=True, track_running_stats=True)\n        (relu2): ReLU(inplace=True)\n        (conv2): Conv2d(128, 32, kernel_size=(3, 3), stride=(1, 1), padding=(1, 1), bias=False)\n      )\n      (denselayer2): _DenseLayer(\n        (norm1): BatchNorm2d(96, eps=1e-05, momentum=0.1, affine=True, track_running_stats=True)\n        (relu1): ReLU(inplace=True)\n        (conv1): Conv2d(96, 128, kernel_size=(1, 1), stride=(1, 1), bias=False)\n        (norm2): BatchNorm2d(128, eps=1e-05, momentum=0.1, affine=True, track_running_stats=True)\n        (relu2): ReLU(inplace=True)\n        (conv2): Conv2d(128, 32, kernel_size=(3, 3), stride=(1, 1), padding=(1, 1), bias=False)\n      )\n      (denselayer3): _DenseLayer(\n        (norm1): BatchNorm2d(128, eps=1e-05, momentum=0.1, affine=True, track_running_stats=True)\n        (relu1): ReLU(inplace=True)\n        (conv1): Conv2d(128, 128, kernel_size=(1, 1), stride=(1, 1), bias=False)\n        (norm2): BatchNorm2d(128, eps=1e-05, momentum=0.1, affine=True, track_running_stats=True)\n        (relu2): ReLU(inplace=True)\n        (conv2): Conv2d(128, 32, kernel_size=(3, 3), stride=(1, 1), padding=(1, 1), bias=False)\n      )\n      (denselayer4): _DenseLayer(\n        (norm1): BatchNorm2d(160, eps=1e-05, momentum=0.1, affine=True, track_running_stats=True)\n        (relu1): ReLU(inplace=True)\n        (conv1): Conv2d(160, 128, kernel_size=(1, 1), stride=(1, 1), bias=False)\n        (norm2): BatchNorm2d(128, eps=1e-05, momentum=0.1, affine=True, track_running_stats=True)\n        (relu2): ReLU(inplace=True)\n        (conv2): Conv2d(128, 32, kernel_size=(3, 3), stride=(1, 1), padding=(1, 1), bias=False)\n      )\n      (denselayer5): _DenseLayer(\n        (norm1): BatchNorm2d(192, eps=1e-05, momentum=0.1, affine=True, track_running_stats=True)\n        (relu1): ReLU(inplace=True)\n        (conv1): Conv2d(192, 128, kernel_size=(1, 1), stride=(1, 1), bias=False)\n        (norm2): BatchNorm2d(128, eps=1e-05, momentum=0.1, affine=True, track_running_stats=True)\n        (relu2): ReLU(inplace=True)\n        (conv2): Conv2d(128, 32, kernel_size=(3, 3), stride=(1, 1), padding=(1, 1), bias=False)\n      )\n      (denselayer6): _DenseLayer(\n        (norm1): BatchNorm2d(224, eps=1e-05, momentum=0.1, affine=True, track_running_stats=True)\n        (relu1): ReLU(inplace=True)\n        (conv1): Conv2d(224, 128, kernel_size=(1, 1), stride=(1, 1), bias=False)\n        (norm2): BatchNorm2d(128, eps=1e-05, momentum=0.1, affine=True, track_running_stats=True)\n        (relu2): ReLU(inplace=True)\n        (conv2): Conv2d(128, 32, kernel_size=(3, 3), stride=(1, 1), padding=(1, 1), bias=False)\n      )\n    )\n    (transition1): _Transition(\n      (norm): BatchNorm2d(256, eps=1e-05, momentum=0.1, affine=True, track_running_stats=True)\n      (relu): ReLU(inplace=True)\n      (conv): Conv2d(256, 128, kernel_size=(1, 1), stride=(1, 1), bias=False)\n      (pool): AvgPool2d(kernel_size=2, stride=2, padding=0)\n    )\n    (denseblock2): _DenseBlock(\n      (denselayer1): _DenseLayer(\n        (norm1): BatchNorm2d(128, eps=1e-05, momentum=0.1, affine=True, track_running_stats=True)\n        (relu1): ReLU(inplace=True)\n        (conv1): Conv2d(128, 128, kernel_size=(1, 1), stride=(1, 1), bias=False)\n        (norm2): BatchNorm2d(128, eps=1e-05, momentum=0.1, affine=True, track_running_stats=True)\n        (relu2): ReLU(inplace=True)\n        (conv2): Conv2d(128, 32, kernel_size=(3, 3), stride=(1, 1), padding=(1, 1), bias=False)\n      )\n      (denselayer2): _DenseLayer(\n        (norm1): BatchNorm2d(160, eps=1e-05, momentum=0.1, affine=True, track_running_stats=True)\n        (relu1): ReLU(inplace=True)\n        (conv1): Conv2d(160, 128, kernel_size=(1, 1), stride=(1, 1), bias=False)\n        (norm2): BatchNorm2d(128, eps=1e-05, momentum=0.1, affine=True, track_running_stats=True)\n        (relu2): ReLU(inplace=True)\n        (conv2): Conv2d(128, 32, kernel_size=(3, 3), stride=(1, 1), padding=(1, 1), bias=False)\n      )\n      (denselayer3): _DenseLayer(\n        (norm1): BatchNorm2d(192, eps=1e-05, momentum=0.1, affine=True, track_running_stats=True)\n        (relu1): ReLU(inplace=True)\n        (conv1): Conv2d(192, 128, kernel_size=(1, 1), stride=(1, 1), bias=False)\n        (norm2): BatchNorm2d(128, eps=1e-05, momentum=0.1, affine=True, track_running_stats=True)\n        (relu2): ReLU(inplace=True)\n        (conv2): Conv2d(128, 32, kernel_size=(3, 3), stride=(1, 1), padding=(1, 1), bias=False)\n      )\n      (denselayer4): _DenseLayer(\n        (norm1): BatchNorm2d(224, eps=1e-05, momentum=0.1, affine=True, track_running_stats=True)\n        (relu1): ReLU(inplace=True)\n        (conv1): Conv2d(224, 128, kernel_size=(1, 1), stride=(1, 1), bias=False)\n        (norm2): BatchNorm2d(128, eps=1e-05, momentum=0.1, affine=True, track_running_stats=True)\n        (relu2): ReLU(inplace=True)\n        (conv2): Conv2d(128, 32, kernel_size=(3, 3), stride=(1, 1), padding=(1, 1), bias=False)\n      )\n      (denselayer5): _DenseLayer(\n        (norm1): BatchNorm2d(256, eps=1e-05, momentum=0.1, affine=True, track_running_stats=True)\n        (relu1): ReLU(inplace=True)\n        (conv1): Conv2d(256, 128, kernel_size=(1, 1), stride=(1, 1), bias=False)\n        (norm2): BatchNorm2d(128, eps=1e-05, momentum=0.1, affine=True, track_running_stats=True)\n        (relu2): ReLU(inplace=True)\n        (conv2): Conv2d(128, 32, kernel_size=(3, 3), stride=(1, 1), padding=(1, 1), bias=False)\n      )\n      (denselayer6): _DenseLayer(\n        (norm1): BatchNorm2d(288, eps=1e-05, momentum=0.1, affine=True, track_running_stats=True)\n        (relu1): ReLU(inplace=True)\n        (conv1): Conv2d(288, 128, kernel_size=(1, 1), stride=(1, 1), bias=False)\n        (norm2): BatchNorm2d(128, eps=1e-05, momentum=0.1, affine=True, track_running_stats=True)\n        (relu2): ReLU(inplace=True)\n        (conv2): Conv2d(128, 32, kernel_size=(3, 3), stride=(1, 1), padding=(1, 1), bias=False)\n      )\n      (denselayer7): _DenseLayer(\n        (norm1): BatchNorm2d(320, eps=1e-05, momentum=0.1, affine=True, track_running_stats=True)\n        (relu1): ReLU(inplace=True)\n        (conv1): Conv2d(320, 128, kernel_size=(1, 1), stride=(1, 1), bias=False)\n        (norm2): BatchNorm2d(128, eps=1e-05, momentum=0.1, affine=True, track_running_stats=True)\n        (relu2): ReLU(inplace=True)\n        (conv2): Conv2d(128, 32, kernel_size=(3, 3), stride=(1, 1), padding=(1, 1), bias=False)\n      )\n      (denselayer8): _DenseLayer(\n        (norm1): BatchNorm2d(352, eps=1e-05, momentum=0.1, affine=True, track_running_stats=True)\n        (relu1): ReLU(inplace=True)\n        (conv1): Conv2d(352, 128, kernel_size=(1, 1), stride=(1, 1), bias=False)\n        (norm2): BatchNorm2d(128, eps=1e-05, momentum=0.1, affine=True, track_running_stats=True)\n        (relu2): ReLU(inplace=True)\n        (conv2): Conv2d(128, 32, kernel_size=(3, 3), stride=(1, 1), padding=(1, 1), bias=False)\n      )\n      (denselayer9): _DenseLayer(\n        (norm1): BatchNorm2d(384, eps=1e-05, momentum=0.1, affine=True, track_running_stats=True)\n        (relu1): ReLU(inplace=True)\n        (conv1): Conv2d(384, 128, kernel_size=(1, 1), stride=(1, 1), bias=False)\n        (norm2): BatchNorm2d(128, eps=1e-05, momentum=0.1, affine=True, track_running_stats=True)\n        (relu2): ReLU(inplace=True)\n        (conv2): Conv2d(128, 32, kernel_size=(3, 3), stride=(1, 1), padding=(1, 1), bias=False)\n      )\n      (denselayer10): _DenseLayer(\n        (norm1): BatchNorm2d(416, eps=1e-05, momentum=0.1, affine=True, track_running_stats=True)\n        (relu1): ReLU(inplace=True)\n        (conv1): Conv2d(416, 128, kernel_size=(1, 1), stride=(1, 1), bias=False)\n        (norm2): BatchNorm2d(128, eps=1e-05, momentum=0.1, affine=True, track_running_stats=True)\n        (relu2): ReLU(inplace=True)\n        (conv2): Conv2d(128, 32, kernel_size=(3, 3), stride=(1, 1), padding=(1, 1), bias=False)\n      )\n      (denselayer11): _DenseLayer(\n        (norm1): BatchNorm2d(448, eps=1e-05, momentum=0.1, affine=True, track_running_stats=True)\n        (relu1): ReLU(inplace=True)\n        (conv1): Conv2d(448, 128, kernel_size=(1, 1), stride=(1, 1), bias=False)\n        (norm2): BatchNorm2d(128, eps=1e-05, momentum=0.1, affine=True, track_running_stats=True)\n        (relu2): ReLU(inplace=True)\n        (conv2): Conv2d(128, 32, kernel_size=(3, 3), stride=(1, 1), padding=(1, 1), bias=False)\n      )\n      (denselayer12): _DenseLayer(\n        (norm1): BatchNorm2d(480, eps=1e-05, momentum=0.1, affine=True, track_running_stats=True)\n        (relu1): ReLU(inplace=True)\n        (conv1): Conv2d(480, 128, kernel_size=(1, 1), stride=(1, 1), bias=False)\n        (norm2): BatchNorm2d(128, eps=1e-05, momentum=0.1, affine=True, track_running_stats=True)\n        (relu2): ReLU(inplace=True)\n        (conv2): Conv2d(128, 32, kernel_size=(3, 3), stride=(1, 1), padding=(1, 1), bias=False)\n      )\n    )\n    (transition2): _Transition(\n      (norm): BatchNorm2d(512, eps=1e-05, momentum=0.1, affine=True, track_running_stats=True)\n      (relu): ReLU(inplace=True)\n      (conv): Conv2d(512, 256, kernel_size=(1, 1), stride=(1, 1), bias=False)\n      (pool): AvgPool2d(kernel_size=2, stride=2, padding=0)\n    )\n    (denseblock3): _DenseBlock(\n      (denselayer1): _DenseLayer(\n        (norm1): BatchNorm2d(256, eps=1e-05, momentum=0.1, affine=True, track_running_stats=True)\n        (relu1): ReLU(inplace=True)\n        (conv1): Conv2d(256, 128, kernel_size=(1, 1), stride=(1, 1), bias=False)\n        (norm2): BatchNorm2d(128, eps=1e-05, momentum=0.1, affine=True, track_running_stats=True)\n        (relu2): ReLU(inplace=True)\n        (conv2): Conv2d(128, 32, kernel_size=(3, 3), stride=(1, 1), padding=(1, 1), bias=False)\n      )\n      (denselayer2): _DenseLayer(\n        (norm1): BatchNorm2d(288, eps=1e-05, momentum=0.1, affine=True, track_running_stats=True)\n        (relu1): ReLU(inplace=True)\n        (conv1): Conv2d(288, 128, kernel_size=(1, 1), stride=(1, 1), bias=False)\n        (norm2): BatchNorm2d(128, eps=1e-05, momentum=0.1, affine=True, track_running_stats=True)\n        (relu2): ReLU(inplace=True)\n        (conv2): Conv2d(128, 32, kernel_size=(3, 3), stride=(1, 1), padding=(1, 1), bias=False)\n      )\n      (denselayer3): _DenseLayer(\n        (norm1): BatchNorm2d(320, eps=1e-05, momentum=0.1, affine=True, track_running_stats=True)\n        (relu1): ReLU(inplace=True)\n        (conv1): Conv2d(320, 128, kernel_size=(1, 1), stride=(1, 1), bias=False)\n        (norm2): BatchNorm2d(128, eps=1e-05, momentum=0.1, affine=True, track_running_stats=True)\n        (relu2): ReLU(inplace=True)\n        (conv2): Conv2d(128, 32, kernel_size=(3, 3), stride=(1, 1), padding=(1, 1), bias=False)\n      )\n      (denselayer4): _DenseLayer(\n        (norm1): BatchNorm2d(352, eps=1e-05, momentum=0.1, affine=True, track_running_stats=True)\n        (relu1): ReLU(inplace=True)\n        (conv1): Conv2d(352, 128, kernel_size=(1, 1), stride=(1, 1), bias=False)\n        (norm2): BatchNorm2d(128, eps=1e-05, momentum=0.1, affine=True, track_running_stats=True)\n        (relu2): ReLU(inplace=True)\n        (conv2): Conv2d(128, 32, kernel_size=(3, 3), stride=(1, 1), padding=(1, 1), bias=False)\n      )\n      (denselayer5): _DenseLayer(\n        (norm1): BatchNorm2d(384, eps=1e-05, momentum=0.1, affine=True, track_running_stats=True)\n        (relu1): ReLU(inplace=True)\n        (conv1): Conv2d(384, 128, kernel_size=(1, 1), stride=(1, 1), bias=False)\n        (norm2): BatchNorm2d(128, eps=1e-05, momentum=0.1, affine=True, track_running_stats=True)\n        (relu2): ReLU(inplace=True)\n        (conv2): Conv2d(128, 32, kernel_size=(3, 3), stride=(1, 1), padding=(1, 1), bias=False)\n      )\n      (denselayer6): _DenseLayer(\n        (norm1): BatchNorm2d(416, eps=1e-05, momentum=0.1, affine=True, track_running_stats=True)\n        (relu1): ReLU(inplace=True)\n        (conv1): Conv2d(416, 128, kernel_size=(1, 1), stride=(1, 1), bias=False)\n        (norm2): BatchNorm2d(128, eps=1e-05, momentum=0.1, affine=True, track_running_stats=True)\n        (relu2): ReLU(inplace=True)\n        (conv2): Conv2d(128, 32, kernel_size=(3, 3), stride=(1, 1), padding=(1, 1), bias=False)\n      )\n      (denselayer7): _DenseLayer(\n        (norm1): BatchNorm2d(448, eps=1e-05, momentum=0.1, affine=True, track_running_stats=True)\n        (relu1): ReLU(inplace=True)\n        (conv1): Conv2d(448, 128, kernel_size=(1, 1), stride=(1, 1), bias=False)\n        (norm2): BatchNorm2d(128, eps=1e-05, momentum=0.1, affine=True, track_running_stats=True)\n        (relu2): ReLU(inplace=True)\n        (conv2): Conv2d(128, 32, kernel_size=(3, 3), stride=(1, 1), padding=(1, 1), bias=False)\n      )\n      (denselayer8): _DenseLayer(\n        (norm1): BatchNorm2d(480, eps=1e-05, momentum=0.1, affine=True, track_running_stats=True)\n        (relu1): ReLU(inplace=True)\n        (conv1): Conv2d(480, 128, kernel_size=(1, 1), stride=(1, 1), bias=False)\n        (norm2): BatchNorm2d(128, eps=1e-05, momentum=0.1, affine=True, track_running_stats=True)\n        (relu2): ReLU(inplace=True)\n        (conv2): Conv2d(128, 32, kernel_size=(3, 3), stride=(1, 1), padding=(1, 1), bias=False)\n      )\n      (denselayer9): _DenseLayer(\n        (norm1): BatchNorm2d(512, eps=1e-05, momentum=0.1, affine=True, track_running_stats=True)\n        (relu1): ReLU(inplace=True)\n        (conv1): Conv2d(512, 128, kernel_size=(1, 1), stride=(1, 1), bias=False)\n        (norm2): BatchNorm2d(128, eps=1e-05, momentum=0.1, affine=True, track_running_stats=True)\n        (relu2): ReLU(inplace=True)\n        (conv2): Conv2d(128, 32, kernel_size=(3, 3), stride=(1, 1), padding=(1, 1), bias=False)\n      )\n      (denselayer10): _DenseLayer(\n        (norm1): BatchNorm2d(544, eps=1e-05, momentum=0.1, affine=True, track_running_stats=True)\n        (relu1): ReLU(inplace=True)\n        (conv1): Conv2d(544, 128, kernel_size=(1, 1), stride=(1, 1), bias=False)\n        (norm2): BatchNorm2d(128, eps=1e-05, momentum=0.1, affine=True, track_running_stats=True)\n        (relu2): ReLU(inplace=True)\n        (conv2): Conv2d(128, 32, kernel_size=(3, 3), stride=(1, 1), padding=(1, 1), bias=False)\n      )\n      (denselayer11): _DenseLayer(\n        (norm1): BatchNorm2d(576, eps=1e-05, momentum=0.1, affine=True, track_running_stats=True)\n        (relu1): ReLU(inplace=True)\n        (conv1): Conv2d(576, 128, kernel_size=(1, 1), stride=(1, 1), bias=False)\n        (norm2): BatchNorm2d(128, eps=1e-05, momentum=0.1, affine=True, track_running_stats=True)\n        (relu2): ReLU(inplace=True)\n        (conv2): Conv2d(128, 32, kernel_size=(3, 3), stride=(1, 1), padding=(1, 1), bias=False)\n      )\n      (denselayer12): _DenseLayer(\n        (norm1): BatchNorm2d(608, eps=1e-05, momentum=0.1, affine=True, track_running_stats=True)\n        (relu1): ReLU(inplace=True)\n        (conv1): Conv2d(608, 128, kernel_size=(1, 1), stride=(1, 1), bias=False)\n        (norm2): BatchNorm2d(128, eps=1e-05, momentum=0.1, affine=True, track_running_stats=True)\n        (relu2): ReLU(inplace=True)\n        (conv2): Conv2d(128, 32, kernel_size=(3, 3), stride=(1, 1), padding=(1, 1), bias=False)\n      )\n      (denselayer13): _DenseLayer(\n        (norm1): BatchNorm2d(640, eps=1e-05, momentum=0.1, affine=True, track_running_stats=True)\n        (relu1): ReLU(inplace=True)\n        (conv1): Conv2d(640, 128, kernel_size=(1, 1), stride=(1, 1), bias=False)\n        (norm2): BatchNorm2d(128, eps=1e-05, momentum=0.1, affine=True, track_running_stats=True)\n        (relu2): ReLU(inplace=True)\n        (conv2): Conv2d(128, 32, kernel_size=(3, 3), stride=(1, 1), padding=(1, 1), bias=False)\n      )\n      (denselayer14): _DenseLayer(\n        (norm1): BatchNorm2d(672, eps=1e-05, momentum=0.1, affine=True, track_running_stats=True)\n        (relu1): ReLU(inplace=True)\n        (conv1): Conv2d(672, 128, kernel_size=(1, 1), stride=(1, 1), bias=False)\n        (norm2): BatchNorm2d(128, eps=1e-05, momentum=0.1, affine=True, track_running_stats=True)\n        (relu2): ReLU(inplace=True)\n        (conv2): Conv2d(128, 32, kernel_size=(3, 3), stride=(1, 1), padding=(1, 1), bias=False)\n      )\n      (denselayer15): _DenseLayer(\n        (norm1): BatchNorm2d(704, eps=1e-05, momentum=0.1, affine=True, track_running_stats=True)\n        (relu1): ReLU(inplace=True)\n        (conv1): Conv2d(704, 128, kernel_size=(1, 1), stride=(1, 1), bias=False)\n        (norm2): BatchNorm2d(128, eps=1e-05, momentum=0.1, affine=True, track_running_stats=True)\n        (relu2): ReLU(inplace=True)\n        (conv2): Conv2d(128, 32, kernel_size=(3, 3), stride=(1, 1), padding=(1, 1), bias=False)\n      )\n      (denselayer16): _DenseLayer(\n        (norm1): BatchNorm2d(736, eps=1e-05, momentum=0.1, affine=True, track_running_stats=True)\n        (relu1): ReLU(inplace=True)\n        (conv1): Conv2d(736, 128, kernel_size=(1, 1), stride=(1, 1), bias=False)\n        (norm2): BatchNorm2d(128, eps=1e-05, momentum=0.1, affine=True, track_running_stats=True)\n        (relu2): ReLU(inplace=True)\n        (conv2): Conv2d(128, 32, kernel_size=(3, 3), stride=(1, 1), padding=(1, 1), bias=False)\n      )\n      (denselayer17): _DenseLayer(\n        (norm1): BatchNorm2d(768, eps=1e-05, momentum=0.1, affine=True, track_running_stats=True)\n        (relu1): ReLU(inplace=True)\n        (conv1): Conv2d(768, 128, kernel_size=(1, 1), stride=(1, 1), bias=False)\n        (norm2): BatchNorm2d(128, eps=1e-05, momentum=0.1, affine=True, track_running_stats=True)\n        (relu2): ReLU(inplace=True)\n        (conv2): Conv2d(128, 32, kernel_size=(3, 3), stride=(1, 1), padding=(1, 1), bias=False)\n      )\n      (denselayer18): _DenseLayer(\n        (norm1): BatchNorm2d(800, eps=1e-05, momentum=0.1, affine=True, track_running_stats=True)\n        (relu1): ReLU(inplace=True)\n        (conv1): Conv2d(800, 128, kernel_size=(1, 1), stride=(1, 1), bias=False)\n        (norm2): BatchNorm2d(128, eps=1e-05, momentum=0.1, affine=True, track_running_stats=True)\n        (relu2): ReLU(inplace=True)\n        (conv2): Conv2d(128, 32, kernel_size=(3, 3), stride=(1, 1), padding=(1, 1), bias=False)\n      )\n      (denselayer19): _DenseLayer(\n        (norm1): BatchNorm2d(832, eps=1e-05, momentum=0.1, affine=True, track_running_stats=True)\n        (relu1): ReLU(inplace=True)\n        (conv1): Conv2d(832, 128, kernel_size=(1, 1), stride=(1, 1), bias=False)\n        (norm2): BatchNorm2d(128, eps=1e-05, momentum=0.1, affine=True, track_running_stats=True)\n        (relu2): ReLU(inplace=True)\n        (conv2): Conv2d(128, 32, kernel_size=(3, 3), stride=(1, 1), padding=(1, 1), bias=False)\n      )\n      (denselayer20): _DenseLayer(\n        (norm1): BatchNorm2d(864, eps=1e-05, momentum=0.1, affine=True, track_running_stats=True)\n        (relu1): ReLU(inplace=True)\n        (conv1): Conv2d(864, 128, kernel_size=(1, 1), stride=(1, 1), bias=False)\n        (norm2): BatchNorm2d(128, eps=1e-05, momentum=0.1, affine=True, track_running_stats=True)\n        (relu2): ReLU(inplace=True)\n        (conv2): Conv2d(128, 32, kernel_size=(3, 3), stride=(1, 1), padding=(1, 1), bias=False)\n      )\n      (denselayer21): _DenseLayer(\n        (norm1): BatchNorm2d(896, eps=1e-05, momentum=0.1, affine=True, track_running_stats=True)\n        (relu1): ReLU(inplace=True)\n        (conv1): Conv2d(896, 128, kernel_size=(1, 1), stride=(1, 1), bias=False)\n        (norm2): BatchNorm2d(128, eps=1e-05, momentum=0.1, affine=True, track_running_stats=True)\n        (relu2): ReLU(inplace=True)\n        (conv2): Conv2d(128, 32, kernel_size=(3, 3), stride=(1, 1), padding=(1, 1), bias=False)\n      )\n      (denselayer22): _DenseLayer(\n        (norm1): BatchNorm2d(928, eps=1e-05, momentum=0.1, affine=True, track_running_stats=True)\n        (relu1): ReLU(inplace=True)\n        (conv1): Conv2d(928, 128, kernel_size=(1, 1), stride=(1, 1), bias=False)\n        (norm2): BatchNorm2d(128, eps=1e-05, momentum=0.1, affine=True, track_running_stats=True)\n        (relu2): ReLU(inplace=True)\n        (conv2): Conv2d(128, 32, kernel_size=(3, 3), stride=(1, 1), padding=(1, 1), bias=False)\n      )\n      (denselayer23): _DenseLayer(\n        (norm1): BatchNorm2d(960, eps=1e-05, momentum=0.1, affine=True, track_running_stats=True)\n        (relu1): ReLU(inplace=True)\n        (conv1): Conv2d(960, 128, kernel_size=(1, 1), stride=(1, 1), bias=False)\n        (norm2): BatchNorm2d(128, eps=1e-05, momentum=0.1, affine=True, track_running_stats=True)\n        (relu2): ReLU(inplace=True)\n        (conv2): Conv2d(128, 32, kernel_size=(3, 3), stride=(1, 1), padding=(1, 1), bias=False)\n      )\n      (denselayer24): _DenseLayer(\n        (norm1): BatchNorm2d(992, eps=1e-05, momentum=0.1, affine=True, track_running_stats=True)\n        (relu1): ReLU(inplace=True)\n        (conv1): Conv2d(992, 128, kernel_size=(1, 1), stride=(1, 1), bias=False)\n        (norm2): BatchNorm2d(128, eps=1e-05, momentum=0.1, affine=True, track_running_stats=True)\n        (relu2): ReLU(inplace=True)\n        (conv2): Conv2d(128, 32, kernel_size=(3, 3), stride=(1, 1), padding=(1, 1), bias=False)\n      )\n    )\n    (transition3): _Transition(\n      (norm): BatchNorm2d(1024, eps=1e-05, momentum=0.1, affine=True, track_running_stats=True)\n      (relu): ReLU(inplace=True)\n      (conv): Conv2d(1024, 512, kernel_size=(1, 1), stride=(1, 1), bias=False)\n      (pool): AvgPool2d(kernel_size=2, stride=2, padding=0)\n    )\n    (denseblock4): _DenseBlock(\n      (denselayer1): _DenseLayer(\n        (norm1): BatchNorm2d(512, eps=1e-05, momentum=0.1, affine=True, track_running_stats=True)\n        (relu1): ReLU(inplace=True)\n        (conv1): Conv2d(512, 128, kernel_size=(1, 1), stride=(1, 1), bias=False)\n        (norm2): BatchNorm2d(128, eps=1e-05, momentum=0.1, affine=True, track_running_stats=True)\n        (relu2): ReLU(inplace=True)\n        (conv2): Conv2d(128, 32, kernel_size=(3, 3), stride=(1, 1), padding=(1, 1), bias=False)\n      )\n      (denselayer2): _DenseLayer(\n        (norm1): BatchNorm2d(544, eps=1e-05, momentum=0.1, affine=True, track_running_stats=True)\n        (relu1): ReLU(inplace=True)\n        (conv1): Conv2d(544, 128, kernel_size=(1, 1), stride=(1, 1), bias=False)\n        (norm2): BatchNorm2d(128, eps=1e-05, momentum=0.1, affine=True, track_running_stats=True)\n        (relu2): ReLU(inplace=True)\n        (conv2): Conv2d(128, 32, kernel_size=(3, 3), stride=(1, 1), padding=(1, 1), bias=False)\n      )\n      (denselayer3): _DenseLayer(\n        (norm1): BatchNorm2d(576, eps=1e-05, momentum=0.1, affine=True, track_running_stats=True)\n        (relu1): ReLU(inplace=True)\n        (conv1): Conv2d(576, 128, kernel_size=(1, 1), stride=(1, 1), bias=False)\n        (norm2): BatchNorm2d(128, eps=1e-05, momentum=0.1, affine=True, track_running_stats=True)\n        (relu2): ReLU(inplace=True)\n        (conv2): Conv2d(128, 32, kernel_size=(3, 3), stride=(1, 1), padding=(1, 1), bias=False)\n      )\n      (denselayer4): _DenseLayer(\n        (norm1): BatchNorm2d(608, eps=1e-05, momentum=0.1, affine=True, track_running_stats=True)\n        (relu1): ReLU(inplace=True)\n        (conv1): Conv2d(608, 128, kernel_size=(1, 1), stride=(1, 1), bias=False)\n        (norm2): BatchNorm2d(128, eps=1e-05, momentum=0.1, affine=True, track_running_stats=True)\n        (relu2): ReLU(inplace=True)\n        (conv2): Conv2d(128, 32, kernel_size=(3, 3), stride=(1, 1), padding=(1, 1), bias=False)\n      )\n      (denselayer5): _DenseLayer(\n        (norm1): BatchNorm2d(640, eps=1e-05, momentum=0.1, affine=True, track_running_stats=True)\n        (relu1): ReLU(inplace=True)\n        (conv1): Conv2d(640, 128, kernel_size=(1, 1), stride=(1, 1), bias=False)\n        (norm2): BatchNorm2d(128, eps=1e-05, momentum=0.1, affine=True, track_running_stats=True)\n        (relu2): ReLU(inplace=True)\n        (conv2): Conv2d(128, 32, kernel_size=(3, 3), stride=(1, 1), padding=(1, 1), bias=False)\n      )\n      (denselayer6): _DenseLayer(\n        (norm1): BatchNorm2d(672, eps=1e-05, momentum=0.1, affine=True, track_running_stats=True)\n        (relu1): ReLU(inplace=True)\n        (conv1): Conv2d(672, 128, kernel_size=(1, 1), stride=(1, 1), bias=False)\n        (norm2): BatchNorm2d(128, eps=1e-05, momentum=0.1, affine=True, track_running_stats=True)\n        (relu2): ReLU(inplace=True)\n        (conv2): Conv2d(128, 32, kernel_size=(3, 3), stride=(1, 1), padding=(1, 1), bias=False)\n      )\n      (denselayer7): _DenseLayer(\n        (norm1): BatchNorm2d(704, eps=1e-05, momentum=0.1, affine=True, track_running_stats=True)\n        (relu1): ReLU(inplace=True)\n        (conv1): Conv2d(704, 128, kernel_size=(1, 1), stride=(1, 1), bias=False)\n        (norm2): BatchNorm2d(128, eps=1e-05, momentum=0.1, affine=True, track_running_stats=True)\n        (relu2): ReLU(inplace=True)\n        (conv2): Conv2d(128, 32, kernel_size=(3, 3), stride=(1, 1), padding=(1, 1), bias=False)\n      )\n      (denselayer8): _DenseLayer(\n        (norm1): BatchNorm2d(736, eps=1e-05, momentum=0.1, affine=True, track_running_stats=True)\n        (relu1): ReLU(inplace=True)\n        (conv1): Conv2d(736, 128, kernel_size=(1, 1), stride=(1, 1), bias=False)\n        (norm2): BatchNorm2d(128, eps=1e-05, momentum=0.1, affine=True, track_running_stats=True)\n        (relu2): ReLU(inplace=True)\n        (conv2): Conv2d(128, 32, kernel_size=(3, 3), stride=(1, 1), padding=(1, 1), bias=False)\n      )\n      (denselayer9): _DenseLayer(\n        (norm1): BatchNorm2d(768, eps=1e-05, momentum=0.1, affine=True, track_running_stats=True)\n        (relu1): ReLU(inplace=True)\n        (conv1): Conv2d(768, 128, kernel_size=(1, 1), stride=(1, 1), bias=False)\n        (norm2): BatchNorm2d(128, eps=1e-05, momentum=0.1, affine=True, track_running_stats=True)\n        (relu2): ReLU(inplace=True)\n        (conv2): Conv2d(128, 32, kernel_size=(3, 3), stride=(1, 1), padding=(1, 1), bias=False)\n      )\n      (denselayer10): _DenseLayer(\n        (norm1): BatchNorm2d(800, eps=1e-05, momentum=0.1, affine=True, track_running_stats=True)\n        (relu1): ReLU(inplace=True)\n        (conv1): Conv2d(800, 128, kernel_size=(1, 1), stride=(1, 1), bias=False)\n        (norm2): BatchNorm2d(128, eps=1e-05, momentum=0.1, affine=True, track_running_stats=True)\n        (relu2): ReLU(inplace=True)\n        (conv2): Conv2d(128, 32, kernel_size=(3, 3), stride=(1, 1), padding=(1, 1), bias=False)\n      )\n      (denselayer11): _DenseLayer(\n        (norm1): BatchNorm2d(832, eps=1e-05, momentum=0.1, affine=True, track_running_stats=True)\n        (relu1): ReLU(inplace=True)\n        (conv1): Conv2d(832, 128, kernel_size=(1, 1), stride=(1, 1), bias=False)\n        (norm2): BatchNorm2d(128, eps=1e-05, momentum=0.1, affine=True, track_running_stats=True)\n        (relu2): ReLU(inplace=True)\n        (conv2): Conv2d(128, 32, kernel_size=(3, 3), stride=(1, 1), padding=(1, 1), bias=False)\n      )\n      (denselayer12): _DenseLayer(\n        (norm1): BatchNorm2d(864, eps=1e-05, momentum=0.1, affine=True, track_running_stats=True)\n        (relu1): ReLU(inplace=True)\n        (conv1): Conv2d(864, 128, kernel_size=(1, 1), stride=(1, 1), bias=False)\n        (norm2): BatchNorm2d(128, eps=1e-05, momentum=0.1, affine=True, track_running_stats=True)\n        (relu2): ReLU(inplace=True)\n        (conv2): Conv2d(128, 32, kernel_size=(3, 3), stride=(1, 1), padding=(1, 1), bias=False)\n      )\n      (denselayer13): _DenseLayer(\n        (norm1): BatchNorm2d(896, eps=1e-05, momentum=0.1, affine=True, track_running_stats=True)\n        (relu1): ReLU(inplace=True)\n        (conv1): Conv2d(896, 128, kernel_size=(1, 1), stride=(1, 1), bias=False)\n        (norm2): BatchNorm2d(128, eps=1e-05, momentum=0.1, affine=True, track_running_stats=True)\n        (relu2): ReLU(inplace=True)\n        (conv2): Conv2d(128, 32, kernel_size=(3, 3), stride=(1, 1), padding=(1, 1), bias=False)\n      )\n      (denselayer14): _DenseLayer(\n        (norm1): BatchNorm2d(928, eps=1e-05, momentum=0.1, affine=True, track_running_stats=True)\n        (relu1): ReLU(inplace=True)\n        (conv1): Conv2d(928, 128, kernel_size=(1, 1), stride=(1, 1), bias=False)\n        (norm2): BatchNorm2d(128, eps=1e-05, momentum=0.1, affine=True, track_running_stats=True)\n        (relu2): ReLU(inplace=True)\n        (conv2): Conv2d(128, 32, kernel_size=(3, 3), stride=(1, 1), padding=(1, 1), bias=False)\n      )\n      (denselayer15): _DenseLayer(\n        (norm1): BatchNorm2d(960, eps=1e-05, momentum=0.1, affine=True, track_running_stats=True)\n        (relu1): ReLU(inplace=True)\n        (conv1): Conv2d(960, 128, kernel_size=(1, 1), stride=(1, 1), bias=False)\n        (norm2): BatchNorm2d(128, eps=1e-05, momentum=0.1, affine=True, track_running_stats=True)\n        (relu2): ReLU(inplace=True)\n        (conv2): Conv2d(128, 32, kernel_size=(3, 3), stride=(1, 1), padding=(1, 1), bias=False)\n      )\n      (denselayer16): _DenseLayer(\n        (norm1): BatchNorm2d(992, eps=1e-05, momentum=0.1, affine=True, track_running_stats=True)\n        (relu1): ReLU(inplace=True)\n        (conv1): Conv2d(992, 128, kernel_size=(1, 1), stride=(1, 1), bias=False)\n        (norm2): BatchNorm2d(128, eps=1e-05, momentum=0.1, affine=True, track_running_stats=True)\n        (relu2): ReLU(inplace=True)\n        (conv2): Conv2d(128, 32, kernel_size=(3, 3), stride=(1, 1), padding=(1, 1), bias=False)\n      )\n    )\n    (norm5): BatchNorm2d(1024, eps=1e-05, momentum=0.1, affine=True, track_running_stats=True)\n  )\n  (classifier): Linear(in_features=1024, out_features=1000, bias=True)\n)", "densenet161": "DenseNet(\n  (features): Sequential(\n    (conv0): Conv2d(3, 96, kernel_size=(7, 7), stride=(2, 2), padding=(3, 3), bias=False)\n    (norm0): BatchNorm2d(96, eps=1e-05, momentum=0.1, affine=True, track_running_stats=True)\n    (relu0): ReLU(inplace=True)\n    (pool0): MaxPool2d(kernel_size=3, stride=2, padding=1, dilation=1, ceil_mode=False)\n    (denseblock1): _DenseBlock(\n      (denselayer1): _DenseLayer(\n        (norm1): BatchNorm2d(96, eps=1e-05, momentum=0.1, affine=True, track_running_stats=True)\n        (relu1): ReLU(inplace=True)\n        (conv1): Conv2d(96, 192, kernel_size=(1, 1), stride=(1, 1), bias=False)\n        (norm2): BatchNorm2d(192, eps=1e-05, momentum=0.1, affine=True, track_running_stats=True)\n        (relu2): ReLU(inplace=True)\n        (conv2): Conv2d(192, 48, kernel_size=(3, 3), stride=(1, 1), padding=(1, 1), bias=False)\n      )\n      (denselayer2): _DenseLayer(\n        (norm1): BatchNorm2d(144, eps=1e-05, momentum=0.1, affine=True, track_running_stats=True)\n        (relu1): ReLU(inplace=True)\n        (conv1): Conv2d(144, 192, kernel_size=(1, 1), stride=(1, 1), bias=False)\n        (norm2): BatchNorm2d(192, eps=1e-05, momentum=0.1, affine=True, track_running_stats=True)\n        (relu2): ReLU(inplace=True)\n        (conv2): Conv2d(192, 48, kernel_size=(3, 3), stride=(1, 1), padding=(1, 1), bias=False)\n      )\n      (denselayer3): _DenseLayer(\n        (norm1): BatchNorm2d(192, eps=1e-05, momentum=0.1, affine=True, track_running_stats=True)\n        (relu1): ReLU(inplace=True)\n        (conv1): Conv2d(192, 192, kernel_size=(1, 1), stride=(1, 1), bias=False)\n        (norm2): BatchNorm2d(192, eps=1e-05, momentum=0.1, affine=True, track_running_stats=True)\n        (relu2): ReLU(inplace=True)\n        (conv2): Conv2d(192, 48, kernel_size=(3, 3), stride=(1, 1), padding=(1, 1), bias=False)\n      )\n      (denselayer4): _DenseLayer(\n        (norm1): BatchNorm2d(240, eps=1e-05, momentum=0.1, affine=True, track_running_stats=True)\n        (relu1): ReLU(inplace=True)\n        (conv1): Conv2d(240, 192, kernel_size=(1, 1), stride=(1, 1), bias=False)\n        (norm2): BatchNorm2d(192, eps=1e-05, momentum=0.1, affine=True, track_running_stats=True)\n        (relu2): ReLU(inplace=True)\n        (conv2): Conv2d(192, 48, kernel_size=(3, 3), stride=(1, 1), padding=(1, 1), bias=False)\n      )\n      (denselayer5): _DenseLayer(\n        (norm1): BatchNorm2d(288, eps=1e-05, momentum=0.1, affine=True, track_running_stats=True)\n        (relu1): ReLU(inplace=True)\n        (conv1): Conv2d(288, 192, kernel_size=(1, 1), stride=(1, 1), bias=False)\n        (norm2): BatchNorm2d(192, eps=1e-05, momentum=0.1, affine=True, track_running_stats=True)\n        (relu2): ReLU(inplace=True)\n        (conv2): Conv2d(192, 48, kernel_size=(3, 3), stride=(1, 1), padding=(1, 1), bias=False)\n      )\n      (denselayer6): _DenseLayer(\n        (norm1): BatchNorm2d(336, eps=1e-05, momentum=0.1, affine=True, track_running_stats=True)\n        (relu1): ReLU(inplace=True)\n        (conv1): Conv2d(336, 192, kernel_size=(1, 1), stride=(1, 1), bias=False)\n        (norm2): BatchNorm2d(192, eps=1e-05, momentum=0.1, affine=True, track_running_stats=True)\n        (relu2): ReLU(inplace=True)\n        (conv2): Conv2d(192, 48, kernel_size=(3, 3), stride=(1, 1), padding=(1, 1), bias=False)\n      )\n    )\n    (transition1): _Transition(\n      (norm): BatchNorm2d(384, eps=1e-05, momentum=0.1, affine=True, track_running_stats=True)\n      (relu): ReLU(inplace=True)\n      (conv): Conv2d(384, 192, kernel_size=(1, 1), stride=(1, 1), bias=False)\n      (pool): AvgPool2d(kernel_size=2, stride=2, padding=0)\n    )\n    (denseblock2): _DenseBlock(\n      (denselayer1): _DenseLayer(\n        (norm1): BatchNorm2d(192, eps=1e-05, momentum=0.1, affine=True, track_running_stats=True)\n        (relu1): ReLU(inplace=True)\n        (conv1): Conv2d(192, 192, kernel_size=(1, 1), stride=(1, 1), bias=False)\n        (norm2): BatchNorm2d(192, eps=1e-05, momentum=0.1, affine=True, track_running_stats=True)\n        (relu2): ReLU(inplace=True)\n        (conv2): Conv2d(192, 48, kernel_size=(3, 3), stride=(1, 1), padding=(1, 1), bias=False)\n      )\n      (denselayer2): _DenseLayer(\n        (norm1): BatchNorm2d(240, eps=1e-05, momentum=0.1, affine=True, track_running_stats=True)\n        (relu1): ReLU(inplace=True)\n        (conv1): Conv2d(240, 192, kernel_size=(1, 1), stride=(1, 1), bias=False)\n        (norm2): BatchNorm2d(192, eps=1e-05, momentum=0.1, affine=True, track_running_stats=True)\n        (relu2): ReLU(inplace=True)\n        (conv2): Conv2d(192, 48, kernel_size=(3, 3), stride=(1, 1), padding=(1, 1), bias=False)\n      )\n      (denselayer3): _DenseLayer(\n        (norm1): BatchNorm2d(288, eps=1e-05, momentum=0.1, affine=True, track_running_stats=True)\n        (relu1): ReLU(inplace=True)\n        (conv1): Conv2d(288, 192, kernel_size=(1, 1), stride=(1, 1), bias=False)\n        (norm2): BatchNorm2d(192, eps=1e-05, momentum=0.1, affine=True, track_running_stats=True)\n        (relu2): ReLU(inplace=True)\n        (conv2): Conv2d(192, 48, kernel_size=(3, 3), stride=(1, 1), padding=(1, 1), bias=False)\n      )\n      (denselayer4): _DenseLayer(\n        (norm1): BatchNorm2d(336, eps=1e-05, momentum=0.1, affine=True, track_running_stats=True)\n        (relu1): ReLU(inplace=True)\n        (conv1): Conv2d(336, 192, kernel_size=(1, 1), stride=(1, 1), bias=False)\n        (norm2): BatchNorm2d(192, eps=1e-05, momentum=0.1, affine=True, track_running_stats=True)\n        (relu2): ReLU(inplace=True)\n        (conv2): Conv2d(192, 48, kernel_size=(3, 3), stride=(1, 1), padding=(1, 1), bias=False)\n      )\n      (denselayer5): _DenseLayer(\n        (norm1): BatchNorm2d(384, eps=1e-05, momentum=0.1, affine=True, track_running_stats=True)\n        (relu1): ReLU(inplace=True)\n        (conv1): Conv2d(384, 192, kernel_size=(1, 1), stride=(1, 1), bias=False)\n        (norm2): BatchNorm2d(192, eps=1e-05, momentum=0.1, affine=True, track_running_stats=True)\n        (relu2): ReLU(inplace=True)\n        (conv2): Conv2d(192, 48, kernel_size=(3, 3), stride=(1, 1), padding=(1, 1), bias=False)\n      )\n      (denselayer6): _DenseLayer(\n        (norm1): BatchNorm2d(432, eps=1e-05, momentum=0.1, affine=True, track_running_stats=True)\n        (relu1): ReLU(inplace=True)\n        (conv1): Conv2d(432, 192, kernel_size=(1, 1), stride=(1, 1), bias=False)\n        (norm2): BatchNorm2d(192, eps=1e-05, momentum=0.1, affine=True, track_running_stats=True)\n        (relu2): ReLU(inplace=True)\n        (conv2): Conv2d(192, 48, kernel_size=(3, 3), stride=(1, 1), padding=(1, 1), bias=False)\n      )\n      (denselayer7): _DenseLayer(\n        (norm1): BatchNorm2d(480, eps=1e-05, momentum=0.1, affine=True, track_running_stats=True)\n        (relu1): ReLU(inplace=True)\n        (conv1): Conv2d(480, 192, kernel_size=(1, 1), stride=(1, 1), bias=False)\n        (norm2): BatchNorm2d(192, eps=1e-05, momentum=0.1, affine=True, track_running_stats=True)\n        (relu2): ReLU(inplace=True)\n        (conv2): Conv2d(192, 48, kernel_size=(3, 3), stride=(1, 1), padding=(1, 1), bias=False)\n      )\n      (denselayer8): _DenseLayer(\n        (norm1): BatchNorm2d(528, eps=1e-05, momentum=0.1, affine=True, track_running_stats=True)\n        (relu1): ReLU(inplace=True)\n        (conv1): Conv2d(528, 192, kernel_size=(1, 1), stride=(1, 1), bias=False)\n        (norm2): BatchNorm2d(192, eps=1e-05, momentum=0.1, affine=True, track_running_stats=True)\n        (relu2): ReLU(inplace=True)\n        (conv2): Conv2d(192, 48, kernel_size=(3, 3), stride=(1, 1), padding=(1, 1), bias=False)\n      )\n      (denselayer9): _DenseLayer(\n        (norm1): BatchNorm2d(576, eps=1e-05, momentum=0.1, affine=True, track_running_stats=True)\n        (relu1): ReLU(inplace=True)\n        (conv1): Conv2d(576, 192, kernel_size=(1, 1), stride=(1, 1), bias=False)\n        (norm2): BatchNorm2d(192, eps=1e-05, momentum=0.1, affine=True, track_running_stats=True)\n        (relu2): ReLU(inplace=True)\n        (conv2): Conv2d(192, 48, kernel_size=(3, 3), stride=(1, 1), padding=(1, 1), bias=False)\n      )\n      (denselayer10): _DenseLayer(\n        (norm1): BatchNorm2d(624, eps=1e-05, momentum=0.1, affine=True, track_running_stats=True)\n        (relu1): ReLU(inplace=True)\n        (conv1): Conv2d(624, 192, kernel_size=(1, 1), stride=(1, 1), bias=False)\n        (norm2): BatchNorm2d(192, eps=1e-05, momentum=0.1, affine=True, track_running_stats=True)\n        (relu2): ReLU(inplace=True)\n        (conv2): Conv2d(192, 48, kernel_size=(3, 3), stride=(1, 1), padding=(1, 1), bias=False)\n      )\n      (denselayer11): _DenseLayer(\n        (norm1): BatchNorm2d(672, eps=1e-05, momentum=0.1, affine=True, track_running_stats=True)\n        (relu1): ReLU(inplace=True)\n        (conv1): Conv2d(672, 192, kernel_size=(1, 1), stride=(1, 1), bias=False)\n        (norm2): BatchNorm2d(192, eps=1e-05, momentum=0.1, affine=True, track_running_stats=True)\n        (relu2): ReLU(inplace=True)\n        (conv2): Conv2d(192, 48, kernel_size=(3, 3), stride=(1, 1), padding=(1, 1), bias=False)\n      )\n      (denselayer12): _DenseLayer(\n        (norm1): BatchNorm2d(720, eps=1e-05, momentum=0.1, affine=True, track_running_stats=True)\n        (relu1): ReLU(inplace=True)\n        (conv1): Conv2d(720, 192, kernel_size=(1, 1), stride=(1, 1), bias=False)\n        (norm2): BatchNorm2d(192, eps=1e-05, momentum=0.1, affine=True, track_running_stats=True)\n        (relu2): ReLU(inplace=True)\n        (conv2): Conv2d(192, 48, kernel_size=(3, 3), stride=(1, 1), padding=(1, 1), bias=False)\n      )\n    )\n    (transition2): _Transition(\n      (norm): BatchNorm2d(768, eps=1e-05, momentum=0.1, affine=True, track_running_stats=True)\n      (relu): ReLU(inplace=True)\n      (conv): Conv2d(768, 384, kernel_size=(1, 1), stride=(1, 1), bias=False)\n      (pool): AvgPool2d(kernel_size=2, stride=2, padding=0)\n    )\n    (denseblock3): _DenseBlock(\n      (denselayer1): _DenseLayer(\n        (norm1): BatchNorm2d(384, eps=1e-05, momentum=0.1, affine=True, track_running_stats=True)\n        (relu1): ReLU(inplace=True)\n        (conv1): Conv2d(384, 192, kernel_size=(1, 1), stride=(1, 1), bias=False)\n        (norm2): BatchNorm2d(192, eps=1e-05, momentum=0.1, affine=True, track_running_stats=True)\n        (relu2): ReLU(inplace=True)\n        (conv2): Conv2d(192, 48, kernel_size=(3, 3), stride=(1, 1), padding=(1, 1), bias=False)\n      )\n      (denselayer2): _DenseLayer(\n        (norm1): BatchNorm2d(432, eps=1e-05, momentum=0.1, affine=True, track_running_stats=True)\n        (relu1): ReLU(inplace=True)\n        (conv1): Conv2d(432, 192, kernel_size=(1, 1), stride=(1, 1), bias=False)\n        (norm2): BatchNorm2d(192, eps=1e-05, momentum=0.1, affine=True, track_running_stats=True)\n        (relu2): ReLU(inplace=True)\n        (conv2): Conv2d(192, 48, kernel_size=(3, 3), stride=(1, 1), padding=(1, 1), bias=False)\n      )\n      (denselayer3): _DenseLayer(\n        (norm1): BatchNorm2d(480, eps=1e-05, momentum=0.1, affine=True, track_running_stats=True)\n        (relu1): ReLU(inplace=True)\n        (conv1): Conv2d(480, 192, kernel_size=(1, 1), stride=(1, 1), bias=False)\n        (norm2): BatchNorm2d(192, eps=1e-05, momentum=0.1, affine=True, track_running_stats=True)\n        (relu2): ReLU(inplace=True)\n        (conv2): Conv2d(192, 48, kernel_size=(3, 3), stride=(1, 1), padding=(1, 1), bias=False)\n      )\n      (denselayer4): _DenseLayer(\n        (norm1): BatchNorm2d(528, eps=1e-05, momentum=0.1, affine=True, track_running_stats=True)\n        (relu1): ReLU(inplace=True)\n        (conv1): Conv2d(528, 192, kernel_size=(1, 1), stride=(1, 1), bias=False)\n        (norm2): BatchNorm2d(192, eps=1e-05, momentum=0.1, affine=True, track_running_stats=True)\n        (relu2): ReLU(inplace=True)\n        (conv2): Conv2d(192, 48, kernel_size=(3, 3), stride=(1, 1), padding=(1, 1), bias=False)\n      )\n      (denselayer5): _DenseLayer(\n        (norm1): BatchNorm2d(576, eps=1e-05, momentum=0.1, affine=True, track_running_stats=True)\n        (relu1): ReLU(inplace=True)\n        (conv1): Conv2d(576, 192, kernel_size=(1, 1), stride=(1, 1), bias=False)\n        (norm2): BatchNorm2d(192, eps=1e-05, momentum=0.1, affine=True, track_running_stats=True)\n        (relu2): ReLU(inplace=True)\n        (conv2): Conv2d(192, 48, kernel_size=(3, 3), stride=(1, 1), padding=(1, 1), bias=False)\n      )\n      (denselayer6): _DenseLayer(\n        (norm1): BatchNorm2d(624, eps=1e-05, momentum=0.1, affine=True, track_running_stats=True)\n        (relu1): ReLU(inplace=True)\n        (conv1): Conv2d(624, 192, kernel_size=(1, 1), stride=(1, 1), bias=False)\n        (norm2): BatchNorm2d(192, eps=1e-05, momentum=0.1, affine=True, track_running_stats=True)\n        (relu2): ReLU(inplace=True)\n        (conv2): Conv2d(192, 48, kernel_size=(3, 3), stride=(1, 1), padding=(1, 1), bias=False)\n      )\n      (denselayer7): _DenseLayer(\n        (norm1): BatchNorm2d(672, eps=1e-05, momentum=0.1, affine=True, track_running_stats=True)\n        (relu1): ReLU(inplace=True)\n        (conv1): Conv2d(672, 192, kernel_size=(1, 1), stride=(1, 1), bias=False)\n        (norm2): BatchNorm2d(192, eps=1e-05, momentum=0.1, affine=True, track_running_stats=True)\n        (relu2): ReLU(inplace=True)\n        (conv2): Conv2d(192, 48, kernel_size=(3, 3), stride=(1, 1), padding=(1, 1), bias=False)\n      )\n      (denselayer8): _DenseLayer(\n        (norm1): BatchNorm2d(720, eps=1e-05, momentum=0.1, affine=True, track_running_stats=True)\n        (relu1): ReLU(inplace=True)\n        (conv1): Conv2d(720, 192, kernel_size=(1, 1), stride=(1, 1), bias=False)\n        (norm2): BatchNorm2d(192, eps=1e-05, momentum=0.1, affine=True, track_running_stats=True)\n        (relu2): ReLU(inplace=True)\n        (conv2): Conv2d(192, 48, kernel_size=(3, 3), stride=(1, 1), padding=(1, 1), bias=False)\n      )\n      (denselayer9): _DenseLayer(\n        (norm1): BatchNorm2d(768, eps=1e-05, momentum=0.1, affine=True, track_running_stats=True)\n        (relu1): ReLU(inplace=True)\n        (conv1): Conv2d(768, 192, kernel_size=(1, 1), stride=(1, 1), bias=False)\n        (norm2): BatchNorm2d(192, eps=1e-05, momentum=0.1, affine=True, track_running_stats=True)\n        (relu2): ReLU(inplace=True)\n        (conv2): Conv2d(192, 48, kernel_size=(3, 3), stride=(1, 1), padding=(1, 1), bias=False)\n      )\n      (denselayer10): _DenseLayer(\n        (norm1): BatchNorm2d(816, eps=1e-05, momentum=0.1, affine=True, track_running_stats=True)\n        (relu1): ReLU(inplace=True)\n        (conv1): Conv2d(816, 192, kernel_size=(1, 1), stride=(1, 1), bias=False)\n        (norm2): BatchNorm2d(192, eps=1e-05, momentum=0.1, affine=True, track_running_stats=True)\n        (relu2): ReLU(inplace=True)\n        (conv2): Conv2d(192, 48, kernel_size=(3, 3), stride=(1, 1), padding=(1, 1), bias=False)\n      )\n      (denselayer11): _DenseLayer(\n        (norm1): BatchNorm2d(864, eps=1e-05, momentum=0.1, affine=True, track_running_stats=True)\n        (relu1): ReLU(inplace=True)\n        (conv1): Conv2d(864, 192, kernel_size=(1, 1), stride=(1, 1), bias=False)\n        (norm2): BatchNorm2d(192, eps=1e-05, momentum=0.1, affine=True, track_running_stats=True)\n        (relu2): ReLU(inplace=True)\n        (conv2): Conv2d(192, 48, kernel_size=(3, 3), stride=(1, 1), padding=(1, 1), bias=False)\n      )\n      (denselayer12): _DenseLayer(\n        (norm1): BatchNorm2d(912, eps=1e-05, momentum=0.1, affine=True, track_running_stats=True)\n        (relu1): ReLU(inplace=True)\n        (conv1): Conv2d(912, 192, kernel_size=(1, 1), stride=(1, 1), bias=False)\n        (norm2): BatchNorm2d(192, eps=1e-05, momentum=0.1, affine=True, track_running_stats=True)\n        (relu2): ReLU(inplace=True)\n        (conv2): Conv2d(192, 48, kernel_size=(3, 3), stride=(1, 1), padding=(1, 1), bias=False)\n      )\n      (denselayer13): _DenseLayer(\n        (norm1): BatchNorm2d(960, eps=1e-05, momentum=0.1, affine=True, track_running_stats=True)\n        (relu1): ReLU(inplace=True)\n        (conv1): Conv2d(960, 192, kernel_size=(1, 1), stride=(1, 1), bias=False)\n        (norm2): BatchNorm2d(192, eps=1e-05, momentum=0.1, affine=True, track_running_stats=True)\n        (relu2): ReLU(inplace=True)\n        (conv2): Conv2d(192, 48, kernel_size=(3, 3), stride=(1, 1), padding=(1, 1), bias=False)\n      )\n      (denselayer14): _DenseLayer(\n        (norm1): BatchNorm2d(1008, eps=1e-05, momentum=0.1, affine=True, track_running_stats=True)\n        (relu1): ReLU(inplace=True)\n        (conv1): Conv2d(1008, 192, kernel_size=(1, 1), stride=(1, 1), bias=False)\n        (norm2): BatchNorm2d(192, eps=1e-05, momentum=0.1, affine=True, track_running_stats=True)\n        (relu2): ReLU(inplace=True)\n        (conv2): Conv2d(192, 48, kernel_size=(3, 3), stride=(1, 1), padding=(1, 1), bias=False)\n      )\n      (denselayer15): _DenseLayer(\n        (norm1): BatchNorm2d(1056, eps=1e-05, momentum=0.1, affine=True, track_running_stats=True)\n        (relu1): ReLU(inplace=True)\n        (conv1): Conv2d(1056, 192, kernel_size=(1, 1), stride=(1, 1), bias=False)\n        (norm2): BatchNorm2d(192, eps=1e-05, momentum=0.1, affine=True, track_running_stats=True)\n        (relu2): ReLU(inplace=True)\n        (conv2): Conv2d(192, 48, kernel_size=(3, 3), stride=(1, 1), padding=(1, 1), bias=False)\n      )\n      (denselayer16): _DenseLayer(\n        (norm1): BatchNorm2d(1104, eps=1e-05, momentum=0.1, affine=True, track_running_stats=True)\n        (relu1): ReLU(inplace=True)\n        (conv1): Conv2d(1104, 192, kernel_size=(1, 1), stride=(1, 1), bias=False)\n        (norm2): BatchNorm2d(192, eps=1e-05, momentum=0.1, affine=True, track_running_stats=True)\n        (relu2): ReLU(inplace=True)\n        (conv2): Conv2d(192, 48, kernel_size=(3, 3), stride=(1, 1), padding=(1, 1), bias=False)\n      )\n      (denselayer17): _DenseLayer(\n        (norm1): BatchNorm2d(1152, eps=1e-05, momentum=0.1, affine=True, track_running_stats=True)\n        (relu1): ReLU(inplace=True)\n        (conv1): Conv2d(1152, 192, kernel_size=(1, 1), stride=(1, 1), bias=False)\n        (norm2): BatchNorm2d(192, eps=1e-05, momentum=0.1, affine=True, track_running_stats=True)\n        (relu2): ReLU(inplace=True)\n        (conv2): Conv2d(192, 48, kernel_size=(3, 3), stride=(1, 1), padding=(1, 1), bias=False)\n      )\n      (denselayer18): _DenseLayer(\n        (norm1): BatchNorm2d(1200, eps=1e-05, momentum=0.1, affine=True, track_running_stats=True)\n        (relu1): ReLU(inplace=True)\n        (conv1): Conv2d(1200, 192, kernel_size=(1, 1), stride=(1, 1), bias=False)\n        (norm2): BatchNorm2d(192, eps=1e-05, momentum=0.1, affine=True, track_running_stats=True)\n        (relu2): ReLU(inplace=True)\n        (conv2): Conv2d(192, 48, kernel_size=(3, 3), stride=(1, 1), padding=(1, 1), bias=False)\n      )\n      (denselayer19): _DenseLayer(\n        (norm1): BatchNorm2d(1248, eps=1e-05, momentum=0.1, affine=True, track_running_stats=True)\n        (relu1): ReLU(inplace=True)\n        (conv1): Conv2d(1248, 192, kernel_size=(1, 1), stride=(1, 1), bias=False)\n        (norm2): BatchNorm2d(192, eps=1e-05, momentum=0.1, affine=True, track_running_stats=True)\n        (relu2): ReLU(inplace=True)\n        (conv2): Conv2d(192, 48, kernel_size=(3, 3), stride=(1, 1), padding=(1, 1), bias=False)\n      )\n      (denselayer20): _DenseLayer(\n        (norm1): BatchNorm2d(1296, eps=1e-05, momentum=0.1, affine=True, track_running_stats=True)\n        (relu1): ReLU(inplace=True)\n        (conv1): Conv2d(1296, 192, kernel_size=(1, 1), stride=(1, 1), bias=False)\n        (norm2): BatchNorm2d(192, eps=1e-05, momentum=0.1, affine=True, track_running_stats=True)\n        (relu2): ReLU(inplace=True)\n        (conv2): Conv2d(192, 48, kernel_size=(3, 3), stride=(1, 1), padding=(1, 1), bias=False)\n      )\n      (denselayer21): _DenseLayer(\n        (norm1): BatchNorm2d(1344, eps=1e-05, momentum=0.1, affine=True, track_running_stats=True)\n        (relu1): ReLU(inplace=True)\n        (conv1): Conv2d(1344, 192, kernel_size=(1, 1), stride=(1, 1), bias=False)\n        (norm2): BatchNorm2d(192, eps=1e-05, momentum=0.1, affine=True, track_running_stats=True)\n        (relu2): ReLU(inplace=True)\n        (conv2): Conv2d(192, 48, kernel_size=(3, 3), stride=(1, 1), padding=(1, 1), bias=False)\n      )\n      (denselayer22): _DenseLayer(\n        (norm1): BatchNorm2d(1392, eps=1e-05, momentum=0.1, affine=True, track_running_stats=True)\n        (relu1): ReLU(inplace=True)\n        (conv1): Conv2d(1392, 192, kernel_size=(1, 1), stride=(1, 1), bias=False)\n        (norm2): BatchNorm2d(192, eps=1e-05, momentum=0.1, affine=True, track_running_stats=True)\n        (relu2): ReLU(inplace=True)\n        (conv2): Conv2d(192, 48, kernel_size=(3, 3), stride=(1, 1), padding=(1, 1), bias=False)\n      )\n      (denselayer23): _DenseLayer(\n        (norm1): BatchNorm2d(1440, eps=1e-05, momentum=0.1, affine=True, track_running_stats=True)\n        (relu1): ReLU(inplace=True)\n        (conv1): Conv2d(1440, 192, kernel_size=(1, 1), stride=(1, 1), bias=False)\n        (norm2): BatchNorm2d(192, eps=1e-05, momentum=0.1, affine=True, track_running_stats=True)\n        (relu2): ReLU(inplace=True)\n        (conv2): Conv2d(192, 48, kernel_size=(3, 3), stride=(1, 1), padding=(1, 1), bias=False)\n      )\n      (denselayer24): _DenseLayer(\n        (norm1): BatchNorm2d(1488, eps=1e-05, momentum=0.1, affine=True, track_running_stats=True)\n        (relu1): ReLU(inplace=True)\n        (conv1): Conv2d(1488, 192, kernel_size=(1, 1), stride=(1, 1), bias=False)\n        (norm2): BatchNorm2d(192, eps=1e-05, momentum=0.1, affine=True, track_running_stats=True)\n        (relu2): ReLU(inplace=True)\n        (conv2): Conv2d(192, 48, kernel_size=(3, 3), stride=(1, 1), padding=(1, 1), bias=False)\n      )\n      (denselayer25): _DenseLayer(\n        (norm1): BatchNorm2d(1536, eps=1e-05, momentum=0.1, affine=True, track_running_stats=True)\n        (relu1): ReLU(inplace=True)\n        (conv1): Conv2d(1536, 192, kernel_size=(1, 1), stride=(1, 1), bias=False)\n        (norm2): BatchNorm2d(192, eps=1e-05, momentum=0.1, affine=True, track_running_stats=True)\n        (relu2): ReLU(inplace=True)\n        (conv2): Conv2d(192, 48, kernel_size=(3, 3), stride=(1, 1), padding=(1, 1), bias=False)\n      )\n      (denselayer26): _DenseLayer(\n        (norm1): BatchNorm2d(1584, eps=1e-05, momentum=0.1, affine=True, track_running_stats=True)\n        (relu1): ReLU(inplace=True)\n        (conv1): Conv2d(1584, 192, kernel_size=(1, 1), stride=(1, 1), bias=False)\n        (norm2): BatchNorm2d(192, eps=1e-05, momentum=0.1, affine=True, track_running_stats=True)\n        (relu2): ReLU(inplace=True)\n        (conv2): Conv2d(192, 48, kernel_size=(3, 3), stride=(1, 1), padding=(1, 1), bias=False)\n      )\n      (denselayer27): _DenseLayer(\n        (norm1): BatchNorm2d(1632, eps=1e-05, momentum=0.1, affine=True, track_running_stats=True)\n        (relu1): ReLU(inplace=True)\n        (conv1): Conv2d(1632, 192, kernel_size=(1, 1), stride=(1, 1), bias=False)\n        (norm2): BatchNorm2d(192, eps=1e-05, momentum=0.1, affine=True, track_running_stats=True)\n        (relu2): ReLU(inplace=True)\n        (conv2): Conv2d(192, 48, kernel_size=(3, 3), stride=(1, 1), padding=(1, 1), bias=False)\n      )\n      (denselayer28): _DenseLayer(\n        (norm1): BatchNorm2d(1680, eps=1e-05, momentum=0.1, affine=True, track_running_stats=True)\n        (relu1): ReLU(inplace=True)\n        (conv1): Conv2d(1680, 192, kernel_size=(1, 1), stride=(1, 1), bias=False)\n        (norm2): BatchNorm2d(192, eps=1e-05, momentum=0.1, affine=True, track_running_stats=True)\n        (relu2): ReLU(inplace=True)\n        (conv2): Conv2d(192, 48, kernel_size=(3, 3), stride=(1, 1), padding=(1, 1), bias=False)\n      )\n      (denselayer29): _DenseLayer(\n        (norm1): BatchNorm2d(1728, eps=1e-05, momentum=0.1, affine=True, track_running_stats=True)\n        (relu1): ReLU(inplace=True)\n        (conv1): Conv2d(1728, 192, kernel_size=(1, 1), stride=(1, 1), bias=False)\n        (norm2): BatchNorm2d(192, eps=1e-05, momentum=0.1, affine=True, track_running_stats=True)\n        (relu2): ReLU(inplace=True)\n        (conv2): Conv2d(192, 48, kernel_size=(3, 3), stride=(1, 1), padding=(1, 1), bias=False)\n      )\n      (denselayer30): _DenseLayer(\n        (norm1): BatchNorm2d(1776, eps=1e-05, momentum=0.1, affine=True, track_running_stats=True)\n        (relu1): ReLU(inplace=True)\n        (conv1): Conv2d(1776, 192, kernel_size=(1, 1), stride=(1, 1), bias=False)\n        (norm2): BatchNorm2d(192, eps=1e-05, momentum=0.1, affine=True, track_running_stats=True)\n        (relu2): ReLU(inplace=True)\n        (conv2): Conv2d(192, 48, kernel_size=(3, 3), stride=(1, 1), padding=(1, 1), bias=False)\n      )\n      (denselayer31): _DenseLayer(\n        (norm1): BatchNorm2d(1824, eps=1e-05, momentum=0.1, affine=True, track_running_stats=True)\n        (relu1): ReLU(inplace=True)\n        (conv1): Conv2d(1824, 192, kernel_size=(1, 1), stride=(1, 1), bias=False)\n        (norm2): BatchNorm2d(192, eps=1e-05, momentum=0.1, affine=True, track_running_stats=True)\n        (relu2): ReLU(inplace=True)\n        (conv2): Conv2d(192, 48, kernel_size=(3, 3), stride=(1, 1), padding=(1, 1), bias=False)\n      )\n      (denselayer32): _DenseLayer(\n        (norm1): BatchNorm2d(1872, eps=1e-05, momentum=0.1, affine=True, track_running_stats=True)\n        (relu1): ReLU(inplace=True)\n        (conv1): Conv2d(1872, 192, kernel_size=(1, 1), stride=(1, 1), bias=False)\n        (norm2): BatchNorm2d(192, eps=1e-05, momentum=0.1, affine=True, track_running_stats=True)\n        (relu2): ReLU(inplace=True)\n        (conv2): Conv2d(192, 48, kernel_size=(3, 3), stride=(1, 1), padding=(1, 1), bias=False)\n      )\n      (denselayer33): _DenseLayer(\n        (norm1): BatchNorm2d(1920, eps=1e-05, momentum=0.1, affine=True, track_running_stats=True)\n        (relu1): ReLU(inplace=True)\n        (conv1): Conv2d(1920, 192, kernel_size=(1, 1), stride=(1, 1), bias=False)\n        (norm2): BatchNorm2d(192, eps=1e-05, momentum=0.1, affine=True, track_running_stats=True)\n        (relu2): ReLU(inplace=True)\n        (conv2): Conv2d(192, 48, kernel_size=(3, 3), stride=(1, 1), padding=(1, 1), bias=False)\n      )\n      (denselayer34): _DenseLayer(\n        (norm1): BatchNorm2d(1968, eps=1e-05, momentum=0.1, affine=True, track_running_stats=True)\n        (relu1): ReLU(inplace=True)\n        (conv1): Conv2d(1968, 192, kernel_size=(1, 1), stride=(1, 1), bias=False)\n        (norm2): BatchNorm2d(192, eps=1e-05, momentum=0.1, affine=True, track_running_stats=True)\n        (relu2): ReLU(inplace=True)\n        (conv2): Conv2d(192, 48, kernel_size=(3, 3), stride=(1, 1), padding=(1, 1), bias=False)\n      )\n      (denselayer35): _DenseLayer(\n        (norm1): BatchNorm2d(2016, eps=1e-05, momentum=0.1, affine=True, track_running_stats=True)\n        (relu1): ReLU(inplace=True)\n        (conv1): Conv2d(2016, 192, kernel_size=(1, 1), stride=(1, 1), bias=False)\n        (norm2): BatchNorm2d(192, eps=1e-05, momentum=0.1, affine=True, track_running_stats=True)\n        (relu2): ReLU(inplace=True)\n        (conv2): Conv2d(192, 48, kernel_size=(3, 3), stride=(1, 1), padding=(1, 1), bias=False)\n      )\n      (denselayer36): _DenseLayer(\n        (norm1): BatchNorm2d(2064, eps=1e-05, momentum=0.1, affine=True, track_running_stats=True)\n        (relu1): ReLU(inplace=True)\n        (conv1): Conv2d(2064, 192, kernel_size=(1, 1), stride=(1, 1), bias=False)\n        (norm2): BatchNorm2d(192, eps=1e-05, momentum=0.1, affine=True, track_running_stats=True)\n        (relu2): ReLU(inplace=True)\n        (conv2): Conv2d(192, 48, kernel_size=(3, 3), stride=(1, 1), padding=(1, 1), bias=False)\n      )\n    )\n    (transition3): _Transition(\n      (norm): BatchNorm2d(2112, eps=1e-05, momentum=0.1, affine=True, track_running_stats=True)\n      (relu): ReLU(inplace=True)\n      (conv): Conv2d(2112, 1056, kernel_size=(1, 1), stride=(1, 1), bias=False)\n      (pool): AvgPool2d(kernel_size=2, stride=2, padding=0)\n    )\n    (denseblock4): _DenseBlock(\n      (denselayer1): _DenseLayer(\n        (norm1): BatchNorm2d(1056, eps=1e-05, momentum=0.1, affine=True, track_running_stats=True)\n        (relu1): ReLU(inplace=True)\n        (conv1): Conv2d(1056, 192, kernel_size=(1, 1), stride=(1, 1), bias=False)\n        (norm2): BatchNorm2d(192, eps=1e-05, momentum=0.1, affine=True, track_running_stats=True)\n        (relu2): ReLU(inplace=True)\n        (conv2): Conv2d(192, 48, kernel_size=(3, 3), stride=(1, 1), padding=(1, 1), bias=False)\n      )\n      (denselayer2): _DenseLayer(\n        (norm1): BatchNorm2d(1104, eps=1e-05, momentum=0.1, affine=True, track_running_stats=True)\n        (relu1): ReLU(inplace=True)\n        (conv1): Conv2d(1104, 192, kernel_size=(1, 1), stride=(1, 1), bias=False)\n        (norm2): BatchNorm2d(192, eps=1e-05, momentum=0.1, affine=True, track_running_stats=True)\n        (relu2): ReLU(inplace=True)\n        (conv2): Conv2d(192, 48, kernel_size=(3, 3), stride=(1, 1), padding=(1, 1), bias=False)\n      )\n      (denselayer3): _DenseLayer(\n        (norm1): BatchNorm2d(1152, eps=1e-05, momentum=0.1, affine=True, track_running_stats=True)\n        (relu1): ReLU(inplace=True)\n        (conv1): Conv2d(1152, 192, kernel_size=(1, 1), stride=(1, 1), bias=False)\n        (norm2): BatchNorm2d(192, eps=1e-05, momentum=0.1, affine=True, track_running_stats=True)\n        (relu2): ReLU(inplace=True)\n        (conv2): Conv2d(192, 48, kernel_size=(3, 3), stride=(1, 1), padding=(1, 1), bias=False)\n      )\n      (denselayer4): _DenseLayer(\n        (norm1): BatchNorm2d(1200, eps=1e-05, momentum=0.1, affine=True, track_running_stats=True)\n        (relu1): ReLU(inplace=True)\n        (conv1): Conv2d(1200, 192, kernel_size=(1, 1), stride=(1, 1), bias=False)\n        (norm2): BatchNorm2d(192, eps=1e-05, momentum=0.1, affine=True, track_running_stats=True)\n        (relu2): ReLU(inplace=True)\n        (conv2): Conv2d(192, 48, kernel_size=(3, 3), stride=(1, 1), padding=(1, 1), bias=False)\n      )\n      (denselayer5): _DenseLayer(\n        (norm1): BatchNorm2d(1248, eps=1e-05, momentum=0.1, affine=True, track_running_stats=True)\n        (relu1): ReLU(inplace=True)\n        (conv1): Conv2d(1248, 192, kernel_size=(1, 1), stride=(1, 1), bias=False)\n        (norm2): BatchNorm2d(192, eps=1e-05, momentum=0.1, affine=True, track_running_stats=True)\n        (relu2): ReLU(inplace=True)\n        (conv2): Conv2d(192, 48, kernel_size=(3, 3), stride=(1, 1), padding=(1, 1), bias=False)\n      )\n      (denselayer6): _DenseLayer(\n        (norm1): BatchNorm2d(1296, eps=1e-05, momentum=0.1, affine=True, track_running_stats=True)\n        (relu1): ReLU(inplace=True)\n        (conv1): Conv2d(1296, 192, kernel_size=(1, 1), stride=(1, 1), bias=False)\n        (norm2): BatchNorm2d(192, eps=1e-05, momentum=0.1, affine=True, track_running_stats=True)\n        (relu2): ReLU(inplace=True)\n        (conv2): Conv2d(192, 48, kernel_size=(3, 3), stride=(1, 1), padding=(1, 1), bias=False)\n      )\n      (denselayer7): _DenseLayer(\n        (norm1): BatchNorm2d(1344, eps=1e-05, momentum=0.1, affine=True, track_running_stats=True)\n        (relu1): ReLU(inplace=True)\n        (conv1): Conv2d(1344, 192, kernel_size=(1, 1), stride=(1, 1), bias=False)\n        (norm2): BatchNorm2d(192, eps=1e-05, momentum=0.1, affine=True, track_running_stats=True)\n        (relu2): ReLU(inplace=True)\n        (conv2): Conv2d(192, 48, kernel_size=(3, 3), stride=(1, 1), padding=(1, 1), bias=False)\n      )\n      (denselayer8): _DenseLayer(\n        (norm1): BatchNorm2d(1392, eps=1e-05, momentum=0.1, affine=True, track_running_stats=True)\n        (relu1): ReLU(inplace=True)\n        (conv1): Conv2d(1392, 192, kernel_size=(1, 1), stride=(1, 1), bias=False)\n        (norm2): BatchNorm2d(192, eps=1e-05, momentum=0.1, affine=True, track_running_stats=True)\n        (relu2): ReLU(inplace=True)\n        (conv2): Conv2d(192, 48, kernel_size=(3, 3), stride=(1, 1), padding=(1, 1), bias=False)\n      )\n      (denselayer9): _DenseLayer(\n        (norm1): BatchNorm2d(1440, eps=1e-05, momentum=0.1, affine=True, track_running_stats=True)\n        (relu1): ReLU(inplace=True)\n        (conv1): Conv2d(1440, 192, kernel_size=(1, 1), stride=(1, 1), bias=False)\n        (norm2): BatchNorm2d(192, eps=1e-05, momentum=0.1, affine=True, track_running_stats=True)\n        (relu2): ReLU(inplace=True)\n        (conv2): Conv2d(192, 48, kernel_size=(3, 3), stride=(1, 1), padding=(1, 1), bias=False)\n      )\n      (denselayer10): _DenseLayer(\n        (norm1): BatchNorm2d(1488, eps=1e-05, momentum=0.1, affine=True, track_running_stats=True)\n        (relu1): ReLU(inplace=True)\n        (conv1): Conv2d(1488, 192, kernel_size=(1, 1), stride=(1, 1), bias=False)\n        (norm2): BatchNorm2d(192, eps=1e-05, momentum=0.1, affine=True, track_running_stats=True)\n        (relu2): ReLU(inplace=True)\n        (conv2): Conv2d(192, 48, kernel_size=(3, 3), stride=(1, 1), padding=(1, 1), bias=False)\n      )\n      (denselayer11): _DenseLayer(\n        (norm1): BatchNorm2d(1536, eps=1e-05, momentum=0.1, affine=True, track_running_stats=True)\n        (relu1): ReLU(inplace=True)\n        (conv1): Conv2d(1536, 192, kernel_size=(1, 1), stride=(1, 1), bias=False)\n        (norm2): BatchNorm2d(192, eps=1e-05, momentum=0.1, affine=True, track_running_stats=True)\n        (relu2): ReLU(inplace=True)\n        (conv2): Conv2d(192, 48, kernel_size=(3, 3), stride=(1, 1), padding=(1, 1), bias=False)\n      )\n      (denselayer12): _DenseLayer(\n        (norm1): BatchNorm2d(1584, eps=1e-05, momentum=0.1, affine=True, track_running_stats=True)\n        (relu1): ReLU(inplace=True)\n        (conv1): Conv2d(1584, 192, kernel_size=(1, 1), stride=(1, 1), bias=False)\n        (norm2): BatchNorm2d(192, eps=1e-05, momentum=0.1, affine=True, track_running_stats=True)\n        (relu2): ReLU(inplace=True)\n        (conv2): Conv2d(192, 48, kernel_size=(3, 3), stride=(1, 1), padding=(1, 1), bias=False)\n      )\n      (denselayer13): _DenseLayer(\n        (norm1): BatchNorm2d(1632, eps=1e-05, momentum=0.1, affine=True, track_running_stats=True)\n        (relu1): ReLU(inplace=True)\n        (conv1): Conv2d(1632, 192, kernel_size=(1, 1), stride=(1, 1), bias=False)\n        (norm2): BatchNorm2d(192, eps=1e-05, momentum=0.1, affine=True, track_running_stats=True)\n        (relu2): ReLU(inplace=True)\n        (conv2): Conv2d(192, 48, kernel_size=(3, 3), stride=(1, 1), padding=(1, 1), bias=False)\n      )\n      (denselayer14): _DenseLayer(\n        (norm1): BatchNorm2d(1680, eps=1e-05, momentum=0.1, affine=True, track_running_stats=True)\n        (relu1): ReLU(inplace=True)\n        (conv1): Conv2d(1680, 192, kernel_size=(1, 1), stride=(1, 1), bias=False)\n        (norm2): BatchNorm2d(192, eps=1e-05, momentum=0.1, affine=True, track_running_stats=True)\n        (relu2): ReLU(inplace=True)\n        (conv2): Conv2d(192, 48, kernel_size=(3, 3), stride=(1, 1), padding=(1, 1), bias=False)\n      )\n      (denselayer15): _DenseLayer(\n        (norm1): BatchNorm2d(1728, eps=1e-05, momentum=0.1, affine=True, track_running_stats=True)\n        (relu1): ReLU(inplace=True)\n        (conv1): Conv2d(1728, 192, kernel_size=(1, 1), stride=(1, 1), bias=False)\n        (norm2): BatchNorm2d(192, eps=1e-05, momentum=0.1, affine=True, track_running_stats=True)\n        (relu2): ReLU(inplace=True)\n        (conv2): Conv2d(192, 48, kernel_size=(3, 3), stride=(1, 1), padding=(1, 1), bias=False)\n      )\n      (denselayer16): _DenseLayer(\n        (norm1): BatchNorm2d(1776, eps=1e-05, momentum=0.1, affine=True, track_running_stats=True)\n        (relu1): ReLU(inplace=True)\n        (conv1): Conv2d(1776, 192, kernel_size=(1, 1), stride=(1, 1), bias=False)\n        (norm2): BatchNorm2d(192, eps=1e-05, momentum=0.1, affine=True, track_running_stats=True)\n        (relu2): ReLU(inplace=True)\n        (conv2): Conv2d(192, 48, kernel_size=(3, 3), stride=(1, 1), padding=(1, 1), bias=False)\n      )\n      (denselayer17): _DenseLayer(\n        (norm1): BatchNorm2d(1824, eps=1e-05, momentum=0.1, affine=True, track_running_stats=True)\n        (relu1): ReLU(inplace=True)\n        (conv1): Conv2d(1824, 192, kernel_size=(1, 1), stride=(1, 1), bias=False)\n        (norm2): BatchNorm2d(192, eps=1e-05, momentum=0.1, affine=True, track_running_stats=True)\n        (relu2): ReLU(inplace=True)\n        (conv2): Conv2d(192, 48, kernel_size=(3, 3), stride=(1, 1), padding=(1, 1), bias=False)\n      )\n      (denselayer18): _DenseLayer(\n        (norm1): BatchNorm2d(1872, eps=1e-05, momentum=0.1, affine=True, track_running_stats=True)\n        (relu1): ReLU(inplace=True)\n        (conv1): Conv2d(1872, 192, kernel_size=(1, 1), stride=(1, 1), bias=False)\n        (norm2): BatchNorm2d(192, eps=1e-05, momentum=0.1, affine=True, track_running_stats=True)\n        (relu2): ReLU(inplace=True)\n        (conv2): Conv2d(192, 48, kernel_size=(3, 3), stride=(1, 1), padding=(1, 1), bias=False)\n      )\n      (denselayer19): _DenseLayer(\n        (norm1): BatchNorm2d(1920, eps=1e-05, momentum=0.1, affine=True, track_running_stats=True)\n        (relu1): ReLU(inplace=True)\n        (conv1): Conv2d(1920, 192, kernel_size=(1, 1), stride=(1, 1), bias=False)\n        (norm2): BatchNorm2d(192, eps=1e-05, momentum=0.1, affine=True, track_running_stats=True)\n        (relu2): ReLU(inplace=True)\n        (conv2): Conv2d(192, 48, kernel_size=(3, 3), stride=(1, 1), padding=(1, 1), bias=False)\n      )\n      (denselayer20): _DenseLayer(\n        (norm1): BatchNorm2d(1968, eps=1e-05, momentum=0.1, affine=True, track_running_stats=True)\n        (relu1): ReLU(inplace=True)\n        (conv1): Conv2d(1968, 192, kernel_size=(1, 1), stride=(1, 1), bias=False)\n        (norm2): BatchNorm2d(192, eps=1e-05, momentum=0.1, affine=True, track_running_stats=True)\n        (relu2): ReLU(inplace=True)\n        (conv2): Conv2d(192, 48, kernel_size=(3, 3), stride=(1, 1), padding=(1, 1), bias=False)\n      )\n      (denselayer21): _DenseLayer(\n        (norm1): BatchNorm2d(2016, eps=1e-05, momentum=0.1, affine=True, track_running_stats=True)\n        (relu1): ReLU(inplace=True)\n        (conv1): Conv2d(2016, 192, kernel_size=(1, 1), stride=(1, 1), bias=False)\n        (norm2): BatchNorm2d(192, eps=1e-05, momentum=0.1, affine=True, track_running_stats=True)\n        (relu2): ReLU(inplace=True)\n        (conv2): Conv2d(192, 48, kernel_size=(3, 3), stride=(1, 1), padding=(1, 1), bias=False)\n      )\n      (denselayer22): _DenseLayer(\n        (norm1): BatchNorm2d(2064, eps=1e-05, momentum=0.1, affine=True, track_running_stats=True)\n        (relu1): ReLU(inplace=True)\n        (conv1): Conv2d(2064, 192, kernel_size=(1, 1), stride=(1, 1), bias=False)\n        (norm2): BatchNorm2d(192, eps=1e-05, momentum=0.1, affine=True, track_running_stats=True)\n        (relu2): ReLU(inplace=True)\n        (conv2): Conv2d(192, 48, kernel_size=(3, 3), stride=(1, 1), padding=(1, 1), bias=False)\n      )\n      (denselayer23): _DenseLayer(\n        (norm1): BatchNorm2d(2112, eps=1e-05, momentum=0.1, affine=True, track_running_stats=True)\n        (relu1): ReLU(inplace=True)\n        (conv1): Conv2d(2112, 192, kernel_size=(1, 1), stride=(1, 1), bias=False)\n        (norm2): BatchNorm2d(192, eps=1e-05, momentum=0.1, affine=True, track_running_stats=True)\n        (relu2): ReLU(inplace=True)\n        (conv2): Conv2d(192, 48, kernel_size=(3, 3), stride=(1, 1), padding=(1, 1), bias=False)\n      )\n      (denselayer24): _DenseLayer(\n        (norm1): BatchNorm2d(2160, eps=1e-05, momentum=0.1, affine=True, track_running_stats=True)\n        (relu1): ReLU(inplace=True)\n        (conv1): Conv2d(2160, 192, kernel_size=(1, 1), stride=(1, 1), bias=False)\n        (norm2): BatchNorm2d(192, eps=1e-05, momentum=0.1, affine=True, track_running_stats=True)\n        (relu2): ReLU(inplace=True)\n        (conv2): Conv2d(192, 48, kernel_size=(3, 3), stride=(1, 1), padding=(1, 1), bias=False)\n      )\n    )\n    (norm5): BatchNorm2d(2208, eps=1e-05, momentum=0.1, affine=True, track_running_stats=True)\n  )\n  (classifier): Linear(in_features=2208, out_features=1000, bias=True)\n)", "densenet169": "DenseNet(\n  (features): Sequential(\n    (conv0): Conv2d(3, 64, kernel_size=(7, 7), stride=(2, 2), padding=(3, 3), bias=False)\n    (norm0): BatchNorm2d(64, eps=1e-05, momentum=0.1, affine=True, track_running_stats=True)\n    (relu0): ReLU(inplace=True)\n    (pool0): MaxPool2d(kernel_size=3, stride=2, padding=1, dilation=1, ceil_mode=False)\n    (denseblock1): _DenseBlock(\n      (denselayer1): _DenseLayer(\n        (norm1): BatchNorm2d(64, eps=1e-05, momentum=0.1, affine=True, track_running_stats=True)\n        (relu1): ReLU(inplace=True)\n        (conv1): Conv2d(64, 128, kernel_size=(1, 1), stride=(1, 1), bias=False)\n        (norm2): BatchNorm2d(128, eps=1e-05, momentum=0.1, affine=True, track_running_stats=True)\n        (relu2): ReLU(inplace=True)\n        (conv2): Conv2d(128, 32, kernel_size=(3, 3), stride=(1, 1), padding=(1, 1), bias=False)\n      )\n      (denselayer2): _DenseLayer(\n        (norm1): BatchNorm2d(96, eps=1e-05, momentum=0.1, affine=True, track_running_stats=True)\n        (relu1): ReLU(inplace=True)\n        (conv1): Conv2d(96, 128, kernel_size=(1, 1), stride=(1, 1), bias=False)\n        (norm2): BatchNorm2d(128, eps=1e-05, momentum=0.1, affine=True, track_running_stats=True)\n        (relu2): ReLU(inplace=True)\n        (conv2): Conv2d(128, 32, kernel_size=(3, 3), stride=(1, 1), padding=(1, 1), bias=False)\n      )\n      (denselayer3): _DenseLayer(\n        (norm1): BatchNorm2d(128, eps=1e-05, momentum=0.1, affine=True, track_running_stats=True)\n        (relu1): ReLU(inplace=True)\n        (conv1): Conv2d(128, 128, kernel_size=(1, 1), stride=(1, 1), bias=False)\n        (norm2): BatchNorm2d(128, eps=1e-05, momentum=0.1, affine=True, track_running_stats=True)\n        (relu2): ReLU(inplace=True)\n        (conv2): Conv2d(128, 32, kernel_size=(3, 3), stride=(1, 1), padding=(1, 1), bias=False)\n      )\n      (denselayer4): _DenseLayer(\n        (norm1): BatchNorm2d(160, eps=1e-05, momentum=0.1, affine=True, track_running_stats=True)\n        (relu1): ReLU(inplace=True)\n        (conv1): Conv2d(160, 128, kernel_size=(1, 1), stride=(1, 1), bias=False)\n        (norm2): BatchNorm2d(128, eps=1e-05, momentum=0.1, affine=True, track_running_stats=True)\n        (relu2): ReLU(inplace=True)\n        (conv2): Conv2d(128, 32, kernel_size=(3, 3), stride=(1, 1), padding=(1, 1), bias=False)\n      )\n      (denselayer5): _DenseLayer(\n        (norm1): BatchNorm2d(192, eps=1e-05, momentum=0.1, affine=True, track_running_stats=True)\n        (relu1): ReLU(inplace=True)\n        (conv1): Conv2d(192, 128, kernel_size=(1, 1), stride=(1, 1), bias=False)\n        (norm2): BatchNorm2d(128, eps=1e-05, momentum=0.1, affine=True, track_running_stats=True)\n        (relu2): ReLU(inplace=True)\n        (conv2): Conv2d(128, 32, kernel_size=(3, 3), stride=(1, 1), padding=(1, 1), bias=False)\n      )\n      (denselayer6): _DenseLayer(\n        (norm1): BatchNorm2d(224, eps=1e-05, momentum=0.1, affine=True, track_running_stats=True)\n        (relu1): ReLU(inplace=True)\n        (conv1): Conv2d(224, 128, kernel_size=(1, 1), stride=(1, 1), bias=False)\n        (norm2): BatchNorm2d(128, eps=1e-05, momentum=0.1, affine=True, track_running_stats=True)\n        (relu2): ReLU(inplace=True)\n        (conv2): Conv2d(128, 32, kernel_size=(3, 3), stride=(1, 1), padding=(1, 1), bias=False)\n      )\n    )\n    (transition1): _Transition(\n      (norm): BatchNorm2d(256, eps=1e-05, momentum=0.1, affine=True, track_running_stats=True)\n      (relu): ReLU(inplace=True)\n      (conv): Conv2d(256, 128, kernel_size=(1, 1), stride=(1, 1), bias=False)\n      (pool): AvgPool2d(kernel_size=2, stride=2, padding=0)\n    )\n    (denseblock2): _DenseBlock(\n      (denselayer1): _DenseLayer(\n        (norm1): BatchNorm2d(128, eps=1e-05, momentum=0.1, affine=True, track_running_stats=True)\n        (relu1): ReLU(inplace=True)\n        (conv1): Conv2d(128, 128, kernel_size=(1, 1), stride=(1, 1), bias=False)\n        (norm2): BatchNorm2d(128, eps=1e-05, momentum=0.1, affine=True, track_running_stats=True)\n        (relu2): ReLU(inplace=True)\n        (conv2): Conv2d(128, 32, kernel_size=(3, 3), stride=(1, 1), padding=(1, 1), bias=False)\n      )\n      (denselayer2): _DenseLayer(\n        (norm1): BatchNorm2d(160, eps=1e-05, momentum=0.1, affine=True, track_running_stats=True)\n        (relu1): ReLU(inplace=True)\n        (conv1): Conv2d(160, 128, kernel_size=(1, 1), stride=(1, 1), bias=False)\n        (norm2): BatchNorm2d(128, eps=1e-05, momentum=0.1, affine=True, track_running_stats=True)\n        (relu2): ReLU(inplace=True)\n        (conv2): Conv2d(128, 32, kernel_size=(3, 3), stride=(1, 1), padding=(1, 1), bias=False)\n      )\n      (denselayer3): _DenseLayer(\n        (norm1): BatchNorm2d(192, eps=1e-05, momentum=0.1, affine=True, track_running_stats=True)\n        (relu1): ReLU(inplace=True)\n        (conv1): Conv2…
: Sequential(\n      (encoder_layer_0): EncoderBlock(\n        (ln_1): LayerNorm((1024,), eps=1e-06, elementwise_affine=True)\n        (self_attention): MultiheadAttention(\n          (out_proj): NonDynamicallyQuantizableLinear(in_features=1024, out_features=1024, bias=True)\n        )\n        (dropout): Dropout(p=0.0, inplace=False)\n        (ln_2): LayerNorm((1024,), eps=1e-06, elementwise_affine=True)\n        (mlp): MLPBlock(\n          (0): Linear(in_features=1024, out_features=4096, bias=True)\n          (1): GELU(approximate='none')\n          (2): Dropout(p=0.0, inplace=False)\n          (3): Linear(in_features=4096, out_features=1024, bias=True)\n          (4): Dropout(p=0.0, inplace=False)\n        )\n      )\n      (encoder_layer_1): EncoderBlock(\n        (ln_1): LayerNorm((1024,), eps=1e-06, elementwise_affine=True)\n        (self_attention): MultiheadAttention(\n          (out_proj): NonDynamicallyQuantizableLinear(in_features=1024, out_features=1024, bias=True)\n        )\n        (dropout): Dropout(p=0.0, inplace=False)\n        (ln_2): LayerNorm((1024,), eps=1e-06, elementwise_affine=True)\n        (mlp): MLPBlock(\n          (0): Linear(in_features=1024, out_features=4096, bias=True)\n          (1): GELU(approximate='none')\n          (2): Dropout(p=0.0, inplace=False)\n          (3): Linear(in_features=4096, out_features=1024, bias=True)\n          (4): Dropout(p=0.0, inplace=False)\n        )\n      )\n      (encoder_layer_2): EncoderBlock(\n        (ln_1): LayerNorm((1024,), eps=1e-06, elementwise_affine=True)\n        (self_attention): MultiheadAttention(\n          (out_proj): NonDynamicallyQuantizableLinear(in_features=1024, out_features=1024, bias=True)\n        )\n        (dropout): Dropout(p=0.0, inplace=False)\n        (ln_2): LayerNorm((1024,), eps=1e-06, elementwise_affine=True)\n        (mlp): MLPBlock(\n          (0): Linear(in_features=1024, out_features=4096, bias=True)\n          (1): GELU(approximate='none')\n          (2): Dropout(p=0.0, inplace=False)\n          (3): Linear(in_features=4096, out_features=1024, bias=True)\n          (4): Dropout(p=0.0, inplace=False)\n        )\n      )\n      (encoder_layer_3): EncoderBlock(\n        (ln_1): LayerNorm((1024,), eps=1e-06, elementwise_affine=True)\n        (self_attention): MultiheadAttention(\n          (out_proj): NonDynamicallyQuantizableLinear(in_features=1024, out_features=1024, bias=True)\n        )\n        (dropout): Dropout(p=0.0, inplace=False)\n        (ln_2): LayerNorm((1024,), eps=1e-06, elementwise_affine=True)\n        (mlp): MLPBlock(\n          (0): Linear(in_features=1024, out_features=4096, bias=True)\n          (1): GELU(approximate='none')\n          (2): Dropout(p=0.0, inplace=False)\n          (3): Linear(in_features=4096, out_features=1024, bias=True)\n          (4): Dropout(p=0.0, inplace=False)\n        )\n      )\n      (encoder_layer_4): EncoderBlock(\n        (ln_1): LayerNorm((1024,), eps=1e-06, elementwise_affine=True)\n        (self_attention): MultiheadAttention(\n          (out_proj): NonDynamicallyQuantizableLinear(in_features=1024, out_features=1024, bias=True)\n        )\n        (dropout): Dropout(p=0.0, inplace=False)\n        (ln_2): LayerNorm((1024,), eps=1e-06, elementwise_affine=True)\n        (mlp): MLPBlock(\n          (0): Linear(in_features=1024, out_features=4096, bias=True)\n          (1): GELU(approximate='none')\n          (2): Dropout(p=0.0, inplace=False)\n          (3): Linear(in_features=4096, out_features=1024, bias=True)\n          (4): Dropout(p=0.0, inplace=False)\n        )\n      )\n      (encoder_layer_5): EncoderBlock(\n        (ln_1): LayerNorm((1024,), eps=1e-06, elementwise_affine=True)\n        (self_attention): MultiheadAttention(\n          (out_proj): NonDynamicallyQuantizableLinear(in_features=1024, out_features=1024, bias=True)\n        )\n        (dropout): Dropout(p=0.0, inplace=False)\n        (ln_2): LayerNorm((1024,), eps=1e-06, elementwise_affine=True)\n        (mlp): MLPBlock(\n          (0): Linear(in_features=1024, out_features=4096, bias=True)\n          (1): GELU(approximate='none')\n          (2): Dropout(p=0.0, inplace=False)\n          (3): Linear(in_features=4096, out_features=1024, bias=True)\n          (4): Dropout(p=0.0, inplace=False)\n        )\n      )\n      (encoder_layer_6): EncoderBlock(\n        (ln_1): LayerNorm((1024,), eps=1e-06, elementwise_affine=True)\n        (self_attention): MultiheadAttention(\n          (out_proj): NonDynamicallyQuantizableLinear(in_features=1024, out_features=1024, bias=True)\n        )\n        (dropout): Dropout(p=0.0, inplace=False)\n        (ln_2): LayerNorm((1024,), eps=1e-06, elementwise_affine=True)\n        (mlp): MLPBlock(\n          (0): Linear(in_features=1024, out_features=4096, bias=True)\n          (1): GELU(approximate='none')\n          (2): Dropout(p=0.0, inplace=False)\n          (3): Linear(in_features=4096, out_features=1024, bias=True)\n          (4): Dropout(p=0.0, inplace=False)\n        )\n      )\n      (encoder_layer_7): EncoderBlock(\n        (ln_1): LayerNorm((1024,), eps=1e-06, elementwise_affine=True)\n        (self_attention): MultiheadAttention(\n          (out_proj): NonDynamicallyQuantizableLinear(in_features=1024, out_features=1024, bias=True)\n        )\n        (dropout): Dropout(p=0.0, inplace=False)\n        (ln_2): LayerNorm((1024,), eps=1e-06, elementwise_affine=True)\n        (mlp): MLPBlock(\n          (0): Linear(in_features=1024, out_features=4096, bias=True)\n          (1): GELU(approximate='none')\n          (2): Dropout(p=0.0, inplace=False)\n          (3): Linear(in_features=4096, out_features=1024, bias=True)\n          (4): Dropout(p=0.0, inplace=False)\n        )\n      )\n      (encoder_layer_8): EncoderBlock(\n        (ln_1): LayerNorm((1024,), eps=1e-06, elementwise_affine=True)\n        (self_attention): MultiheadAttention(\n          (out_proj): NonDynamicallyQuantizableLinear(in_features=1024, out_features=1024, bias=True)\n        )\n        (dropout): Dropout(p=0.0, inplace=False)\n        (ln_2): LayerNorm((1024,), eps=1e-06, elementwise_affine=True)\n        (mlp): MLPBlock(\n          (0): Linear(in_features=1024, out_features=4096, bias=True)\n          (1): GELU(approximate='none')\n          (2): Dropout(p=0.0, inplace=False)\n          (3): Linear(in_features=4096, out_features=1024, bias=True)\n          (4): Dropout(p=0.0, inplace=False)\n        )\n      )\n      (encoder_layer_9): EncoderBlock(\n        (ln_1): LayerNorm((1024,), eps=1e-06, elementwise_affine=True)\n        (self_attention): MultiheadAttention(\n          (out_proj): NonDynamicallyQuantizableLinear(in_features=1024, out_features=1024, bias=True)\n        )\n        (dropout): Dropout(p=0.0, inplace=False)\n        (ln_2): LayerNorm((1024,), eps=1e-06, elementwise_affine=True)\n        (mlp): MLPBlock(\n          (0): Linear(in_features=1024, out_features=4096, bias=True)\n          (1): GELU(approximate='none')\n          (2): Dropout(p=0.0, inplace=False)\n          (3): Linear(in_features=4096, out_features=1024, bias=True)\n          (4): Dropout(p=0.0, inplace=False)\n        )\n      )\n      (encoder_layer_10): EncoderBlock(\n        (ln_1): LayerNorm((1024,), eps=1e-06, elementwise_affine=True)\n        (self_attention): MultiheadAttention(\n          (out_proj): NonDynamicallyQuantizableLinear(in_features=1024, out_features=1024, bias=True)\n        )\n        (dropout): Dropout(p=0.0, inplace=False)\n        (ln_2): LayerNorm((1024,), eps=1e-06, elementwise_affine=True)\n        (mlp): MLPBlock(\n          (0): Linear(in_features=1024, out_features=4096, bias=True)\n          (1): GELU(approximate='none')\n          (2): Dropout(p=0.0, inplace=False)\n          (3): Linear(in_features=4096, out_features=1024, bias=True)\n          (4): Dropout(p=0.0, inplace=False)\n        )\n      )\n      (encoder_layer_11): EncoderBlock(\n        (ln_1): LayerNorm((1024,), eps=1e-06, elementwise_affine=True)\n        (self_attention): MultiheadAttention(\n          (out_proj): NonDynamicallyQuantizableLinear(in_features=1024, out_features=1024, bias=True)\n        )\n        (dropout): Dropout(p=0.0, inplace=False)\n        (ln_2): LayerNorm((1024,), eps=1e-06, elementwise_affine=True)\n        (mlp): MLPBlock(\n          (0): Linear(in_features=1024, out_features=4096, bias=True)\n          (1): GELU(approximate='none')\n          (2): Dropout(p=0.0, inplace=False)\n          (3): Linear(in_features=4096, out_features=1024, bias=True)\n          (4): Dropout(p=0.0, inplace=False)\n        )\n      )\n      (encoder_layer_12): EncoderBlock(\n        (ln_1): LayerNorm((1024,), eps=1e-06, elementwise_affine=True)\n        (self_attention): MultiheadAttention(\n          (out_proj): NonDynamicallyQuantizableLinear(in_features=1024, out_features=1024, bias=True)\n        )\n        (dropout): Dropout(p=0.0, inplace=False)\n        (ln_2): LayerNorm((1024,), eps=1e-06, elementwise_affine=True)\n        (mlp): MLPBlock(\n          (0): Linear(in_features=1024, out_features=4096, bias=True)\n          (1): GELU(approximate='none')\n          (2): Dropout(p=0.0, inplace=False)\n          (3): Linear(in_features=4096, out_features=1024, bias=True)\n          (4): Dropout(p=0.0, inplace=False)\n        )\n      )\n      (encoder_layer_13): EncoderBlock(\n        (ln_1): LayerNorm((1024,), eps=1e-06, elementwise_affine=True)\n        (self_attention): MultiheadAttention(\n          (out_proj): NonDynamicallyQuantizableLinear(in_features=1024, out_features=1024, bias=True)\n        )\n        (dropout): Dropout(p=0.0, inplace=False)\n        (ln_2): LayerNorm((1024,), eps=1e-06, elementwise_affine=True)\n        (mlp): MLPBlock(\n          (0): Linear(in_features=1024, out_features=4096, bias=True)\n          (1): GELU(approximate='none')\n          (2): Dropout(p=0.0, inplace=False)\n          (3): Linear(in_features=4096, out_features=1024, bias=True)\n          (4): Dropout(p=0.0, inplace=False)\n        )\n      )\n      (encoder_layer_14): EncoderBlock(\n        (ln_1): LayerNorm((1024,), eps=1e-06, elementwise_affine=True)\n        (self_attention): MultiheadAttention(\n          (out_proj): NonDynamicallyQuantizableLinear(in_features=1024, out_features=1024, bias=True)\n        )\n        (dropout): Dropout(p=0.0, inplace=False)\n        (ln_2): LayerNorm((1024,), eps=1e-06, elementwise_affine=True)\n        (mlp): MLPBlock(\n          (0): Linear(in_features=1024, out_features=4096, bias=True)\n          (1): GELU(approximate='none')\n          (2): Dropout(p=0.0, inplace=False)\n          (3): Linear(in_features=4096, out_features=1024, bias=True)\n          (4): Dropout(p=0.0, inplace=False)\n        )\n      )\n      (encoder_layer_15): EncoderBlock(\n        (ln_1): LayerNorm((1024,), eps=1e-06, elementwise_affine=True)\n        (self_attention): MultiheadAttention(\n          (out_proj): NonDynamicallyQuantizableLinear(in_features=1024, out_features=1024, bias=True)\n        )\n        (dropout): Dropout(p=0.0, inplace=False)\n        (ln_2): LayerNorm((1024,), eps=1e-06, elementwise_affine=True)\n        (mlp): MLPBlock(\n          (0): Linear(in_features=1024, out_features=4096, bias=True)\n          (1): GELU(approximate='none')\n          (2): Dropout(p=0.0, inplace=False)\n          (3): Linear(in_features=4096, out_features=1024, bias=True)\n          (4): Dropout(p=0.0, inplace=False)\n        )\n      )\n      (encoder_layer_16): EncoderBlock(\n        (ln_1): LayerNorm((1024,), eps=1e-06, elementwise_affine=True)\n        (self_attention): MultiheadAttention(\n          (out_proj): NonDynamicallyQuantizableLinear(in_features=1024, out_features=1024, bias=True)\n        )\n        (dropout): Dropout(p=0.0, inplace=False)\n        (ln_2): LayerNorm((1024,), eps=1e-06, elementwise_affine=True)\n        (mlp): MLPBlock(\n          (0): Linear(in_features=1024, out_features=4096, bias=True)\n          (1): GELU(approximate='none')\n          (2): Dropout(p=0.0, inplace=False)\n          (3): Linear(in_features=4096, out_features=1024, bias=True)\n          (4): Dropout(p=0.0, inplace=False)\n        )\n      )\n      (encoder_layer_17): EncoderBlock(\n        (ln_1): LayerNorm((1024,), eps=1e-06, elementwise_affine=True)\n        (self_attention): MultiheadAttention(\n          (out_proj): NonDynamicallyQuantizableLinear(in_features=1024, out_features=1024, bias=True)\n        )\n        (dropout): Dropout(p=0.0, inplace=False)\n        (ln_2): LayerNorm((1024,), eps=1e-06, elementwise_affine=True)\n        (mlp): MLPBlock(\n          (0): Linear(in_features=1024, out_features=4096, bias=True)\n          (1): GELU(approximate='none')\n          (2): Dropout(p=0.0, inplace=False)\n          (3): Linear(in_features=4096, out_features=1024, bias=True)\n          (4): Dropout(p=0.0, inplace=False)\n        )\n      )\n      (encoder_layer_18): EncoderBlock(\n        (ln_1): LayerNorm((1024,), eps=1e-06, elementwise_affine=True)\n        (self_attention): MultiheadAttention(\n          (out_proj): NonDynamicallyQuantizableLinear(in_features=1024, out_features=1024, bias=True)\n        )\n        (dropout): Dropout(p=0.0, inplace=False)\n        (ln_2): LayerNorm((1024,), eps=1e-06, elementwise_affine=True)\n        (mlp): MLPBlock(\n          (0): Linear(in_features=1024, out_features=4096, bias=True)\n          (1): GELU(approximate='none')\n          (2): Dropout(p=0.0, inplace=False)\n          (3): Linear(in_features=4096, out_features=1024, bias=True)\n          (4): Dropout(p=0.0, inplace=False)\n        )\n      )\n      (encoder_layer_19): EncoderBlock(\n        (ln_1): LayerNorm((1024,), eps=1e-06, elementwise_affine=True)\n        (self_attention): MultiheadAttention(\n          (out_proj): NonDynamicallyQuantizableLinear(in_features=1024, out_features=1024, bias=True)\n        )\n        (dropout): Dropout(p=0.0, inplace=False)\n        (ln_2): LayerNorm((1024,), eps=1e-06, elementwise_affine=True)\n        (mlp): MLPBlock(\n          (0): Linear(in_features=1024, out_features=4096, bias=True)\n          (1): GELU(approximate='none')\n          (2): Dropout(p=0.0, inplace=False)\n          (3): Linear(in_features=4096, out_features=1024, bias=True)\n          (4): Dropout(p=0.0, inplace=False)\n        )\n      )\n      (encoder_layer_20): EncoderBlock(\n        (ln_1): LayerNorm((1024,), eps=1e-06, elementwise_affine=True)\n        (self_attention): MultiheadAttention(\n          (out_proj): NonDynamicallyQuantizableLinear(in_features=1024, out_features=1024, bias=True)\n        )\n        (dropout): Dropout(p=0.0, inplace=False)\n        (ln_2): LayerNorm((1024,), eps=1e-06, elementwise_affine=True)\n        (mlp): MLPBlock(\n          (0): Linear(in_features=1024, out_features=4096, bias=True)\n          (1): GELU(approximate='none')\n          (2): Dropout(p=0.0, inplace=False)\n          (3): Linear(in_features=4096, out_features=1024, bias=True)\n          (4): Dropout(p=0.0, inplace=False)\n        )\n      )\n      (encoder_layer_21): EncoderBlock(\n        (ln_1): LayerNorm((1024,), eps=1e-06, elementwise_affine=True)\n        (self_attention): MultiheadAttention(\n          (out_proj): NonDynamicallyQuantizableLinear(in_features=1024, out_features=1024, bias=True)\n        )\n        (dropout): Dropout(p=0.0, inplace=False)\n        (ln_2): LayerNorm((1024,), eps=1e-06, elementwise_affine=True)\n        (mlp): MLPBlock(\n          (0): Linear(in_features=1024, out_features=4096, bias=True)\n          (1): GELU(approximate='none')\n          (2): Dropout(p=0.0, inplace=False)\n          (3): Linear(in_features=4096, out_features=1024, bias=True)\n          (4): Dropout(p=0.0, inplace=False)\n        )\n      )\n      (encoder_layer_22): EncoderBlock(\n        (ln_1): LayerNorm((1024,), eps=1e-06, elementwise_affine=True)\n        (self_attention): MultiheadAttention(\n          (out_proj): NonDynamicallyQuantizableLinear(in_features=1024, out_features=1024, bias=True)\n        )\n        (dropout): Dropout(p=0.0, inplace=False)\n        (ln_2): LayerNorm((1024,), eps=1e-06, elementwise_affine=True)\n        (mlp): MLPBlock(\n          (0): Linear(in_features=1024, out_features=4096, bias=True)\n          (1): GELU(approximate='none')\n          (2): Dropout(p=0.0, inplace=False)\n          (3): Linear(in_features=4096, out_features=1024, bias=True)\n          (4): Dropout(p=0.0, inplace=False)\n        )\n      )\n      (encoder_layer_23): EncoderBlock(\n        (ln_1): LayerNorm((1024,), eps=1e-06, elementwise_affine=True)\n        (self_attention): MultiheadAttention(\n          (out_proj): NonDynamicallyQuantizableLinear(in_features=1024, out_features=1024, bias=True)\n        )\n        (dropout): Dropout(p=0.0, inplace=False)\n        (ln_2): LayerNorm((1024,), eps=1e-06, elementwise_affine=True)\n        (mlp): MLPBlock(\n          (0): Linear(in_features=1024, out_features=4096, bias=True)\n          (1): GELU(approximate='none')\n          (2): Dropout(p=0.0, inplace=False)\n          (3): Linear(in_features=4096, out_features=1024, bias=True)\n          (4): Dropout(p=0.0, inplace=False)\n        )\n      )\n    )\n    (ln): LayerNorm((1024,), eps=1e-06, elementwise_affine=True)\n  )\n  (heads): Sequential(\n    (head): Linear(in_features=1024, out_features=1000, bias=True)\n  )\n)", "wide_resnet101_2": "ResNet(\n  (conv1): Conv2d(3, 64, kernel_size=(7, 7), stride=(2, 2), padding=(3, 3), bias=False)\n  (bn1): BatchNorm2d(64, eps=1e-05, momentum=0.1, affine=True, track_running_stats=True)\n  (relu): ReLU(inplace=True)\n  (maxpool): MaxPool2d(kernel_size=3, stride=2, padding=1, dilation=1, ceil_mode=False)\n  (layer1): Sequential(\n    (0): Bottleneck(\n      (conv1): Conv2d(64, 128, kernel_size=(1, 1), stride=(1, 1), bias=False)\n      (bn1): BatchNorm2d(128, eps=1e-05, momentum=0.1, affine=True, track_running_stats=True)\n      (conv2): Conv2d(128, 128, kernel_size=(3, 3), stride=(1, 1), padding=(1, 1), bias=False)\n      (bn2): BatchNorm2d(128, eps=1e-05, momentum=0.1, affine=True, track_running_stats=True)\n      (conv3): Conv2d(128, 256, kernel_size=(1, 1), stride=(1, 1), bias=False)\n      (bn3): BatchNorm2d(256, eps=1e-05, momentum=0.1, affine=True, track_running_stats=True)\n      (relu): ReLU(inplace=True)\n      (downsample): Sequential(\n        (0): Conv2d(64, 256, kernel_size=(1, 1), stride=(1, 1), bias=False)\n        (1): BatchNorm2d(256, eps=1e-05, momentum=0.1, affine=True, track_running_stats=True)\n      )\n    )\n    (1): Bottleneck(\n      (conv1): Conv2d(256, 128, kernel_size=(1, 1), stride=(1, 1), bias=False)\n      (bn1): BatchNorm2d(128, eps=1e-05, momentum=0.1, affine=True, track_running_stats=True)\n      (conv2): Conv2d(128, 128, kernel_size=(3, 3), stride=(1, 1), padding=(1, 1), bias=False)\n      (bn2): BatchNorm2d(128, eps=1e-05, momentum=0.1, affine=True, track_running_stats=True)\n      (conv3): Conv2d(128, 256, kernel_size=(1, 1), stride=(1, 1), bias=False)\n      (bn3): BatchNorm2d(256, eps=1e-05, momentum=0.1, affine=True, track_running_stats=True)\n      (relu): ReLU(inplace=True)\n    )\n    (2): Bottleneck(\n      (conv1): Conv2d(256, 128, kernel_size=(1, 1), stride=(1, 1), bias=False)\n      (bn1): BatchNorm2d(128, eps=1e-05, momentum=0.1, affine=True, track_running_stats=True)\n      (conv2): Conv2d(128, 128, kernel_size=(3, 3), stride=(1, 1), padding=(1, 1), bias=False)\n      (bn2): BatchNorm2d(128, eps=1e-05, momentum=0.1, affine=True, track_running_stats=True)\n      (conv3): Conv2d(128, 256, kernel_size=(1, 1), stride=(1, 1), bias=False)\n      (bn3): BatchNorm2d(256, eps=1e-05, momentum=0.1, affine=True, track_running_stats=True)\n      (relu): ReLU(inplace=True)\n    )\n  )\n  (layer2): Sequential(\n    (0): Bottleneck(\n      (conv1): Conv2d(256, 256, kernel_size=(1, 1), stride=(1, 1), bias=False)\n      (bn1): BatchNorm2d(256, eps=1e-05, momentum=0.1, affine=True, track_running_stats=True)\n      (conv2): Conv2d(256, 256, kernel_size=(3, 3), stride=(2, 2), padding=(1, 1), bias=False)\n      (bn2): BatchNorm2d(256, eps=1e-05, momentum=0.1, affine=True, track_running_stats=True)\n      (conv3): Conv2d(256, 512, kernel_size=(1, 1), stride=(1, 1), bias=False)\n      (bn3): BatchNorm2d(512, eps=1e-05, momentum=0.1, affine=True, track_running_stats=True)\n      (relu): ReLU(inplace=True)\n      (downsample): Sequential(\n        (0): Conv2d(256, 512, kernel_size=(1, 1), stride=(2, 2), bias=False)\n        (1): BatchNorm2d(512, eps=1e-05, momentum=0.1, affine=True, track_running_stats=True)\n      )\n    )\n    (1): Bottleneck(\n      (conv1): Conv2d(512, 256, kernel_size=(1, 1), stride=(1, 1), bias=False)\n      (bn1): BatchNorm2d(256, eps=1e-05, momentum=0.1, affine=True, track_running_stats=True)\n      (conv2): Conv2d(256, 256, kernel_size=(3, 3), stride=(1, 1), padding=(1, 1), bias=False)\n      (bn2): BatchNorm2d(256, eps=1e-05, momentum=0.1, affine=True, track_running_stats=True)\n      (conv3): Conv2d(256, 512, kernel_size=(1, 1), stride=(1, 1), bias=False)\n      (bn3): BatchNorm2d(512, eps=1e-05, momentum=0.1, affine=True, track_running_stats=True)\n      (relu): ReLU(inplace=True)\n    )\n    (2): Bottleneck(\n      (conv1): Conv2d(512, 256, kernel_size=(1, 1), stride=(1, 1), bias=False)\n      (bn1): BatchNorm2d(256, eps=1e-05, momentum=0.1, affine=True, track_running_stats=True)\n      (conv2): Conv2d(256, 256, kernel_size=(3, 3), stride=(1, 1), padding=(1, 1), bias=False)\n      (bn2): BatchNorm2d(256, eps=1e-05, momentum=0.1, affine=True, track_running_stats=True)\n      (conv3): Conv2d(256, 512, kernel_size=(1, 1), stride=(1, 1), bias=False)\n      (bn3): BatchNorm2d(512, eps=1e-05, momentum=0.1, affine=True, track_running_stats=True)\n      (relu): ReLU(inplace=True)\n    )\n    (3): Bottleneck(\n      (conv1): Conv2d(512, 256, kernel_size=(1, 1), stride=(1, 1), bias=False)\n      (bn1): BatchNorm2d(256, eps=1e-05, momentum=0.1, affine=True, track_running_stats=True)\n      (conv2): Conv2d(256, 256, kernel_size=(3, 3), stride=(1, 1), padding=(1, 1), bias=False)\n      (bn2): BatchNorm2d(256, eps=1e-05, momentum=0.1, affine=True, track_running_stats=True)\n      (conv3): Conv2d(256, 512, kernel_size=(1, 1), stride=(1, 1), bias=False)\n      (bn3): BatchNorm2d(512, eps=1e-05, momentum=0.1, affine=True, track_running_stats=True)\n      (relu): ReLU(inplace=True)\n    )\n  )\n  (layer3): Sequential(\n    (0): Bottleneck(\n      (conv1): Conv2d(512, 512, kernel_size=(1, 1), stride=(1, 1), bias=False)\n      (bn1): BatchNorm2d(512, eps=1e-05, momentum=0.1, affine=True, track_running_stats=True)\n      (conv2): Conv2d(512, 512, kernel_size=(3, 3), stride=(2, 2), padding=(1, 1), bias=False)\n      (bn2): BatchNorm2d(512, eps=1e-05, momentum=0.1, affine=True, track_running_stats=True)\n      (conv3): Conv2d(512, 1024, kernel_size=(1, 1), stride=(1, 1), bias=False)\n      (bn3): BatchNorm2d(1024, eps=1e-05, momentum=0.1, affine=True, track_running_stats=True)\n      (relu): ReLU(inplace=True)\n      (downsample): Sequential(\n        (0): Conv2d(512, 1024, kernel_size=(1, 1), stride=(2, 2), bias=False)\n        (1): BatchNorm2d(1024, eps=1e-05, momentum=0.1, affine=True, track_running_stats=True)\n      )\n    )\n    (1): Bottleneck(\n      (conv1): Conv2d(1024, 512, kernel_size=(1, 1), stride=(1, 1), bias=False)\n      (bn1): BatchNorm2d(512, eps=1e-05, momentum=0.1, affine=True, track_running_stats=True)\n      (conv2): Conv2d(512, 512, kernel_size=(3, 3), stride=(1, 1), padding=(1, 1), bias=False)\n      (bn2): BatchNorm2d(512, eps=1e-05, momentum=0.1, affine=True, track_running_stats=True)\n      (conv3): Conv2d(512, 1024, kernel_size=(1, 1), stride=(1, 1), bias=False)\n      (bn3): BatchNorm2d(1024, eps=1e-05, momentum=0.1, affine=True, track_running_stats=True)\n      (relu): ReLU(inplace=True)\n    )\n    (2): Bottleneck(\n      (conv1): Conv2d(1024, 512, kernel_size=(1, 1), stride=(1, 1), bias=False)\n      (bn1): BatchNorm2d(512, eps=1e-05, momentum=0.1, affine=True, track_running_stats=True)\n      (conv2): Conv2d(512, 512, kernel_size=(3, 3), stride=(1, 1), padding=(1, 1), bias=False)\n      (bn2): BatchNorm2d(512, eps=1e-05, momentum=0.1, affine=True, track_running_stats=True)\n      (conv3): Conv2d(512, 1024, kernel_size=(1, 1), stride=(1, 1), bias=False)\n      (bn3): BatchNorm2d(1024, eps=1e-05, momentum=0.1, affine=True, track_running_stats=True)\n      (relu): ReLU(inplace=True)\n    )\n    (3): Bottleneck(\n      (conv1): Conv2d(1024, 512, kernel_size=(1, 1), stride=(1, 1), bias=False)\n      (bn1): BatchNorm2d(512, eps=1e-05, momentum=0.1, affine=True, track_running_stats=True)\n      (conv2): Conv2d(512, 512, kernel_size=(3, 3), stride=(1, 1), padding=(1, 1), bias=False)\n      (bn2): BatchNorm2d(512, eps=1e-05, momentum=0.1, affine=True, track_running_stats=True)\n      (conv3): Conv2d(512, 1024, kernel_size=(1, 1), stride=(1, 1), bias=False)\n      (bn3): BatchNorm2d(1024, eps=1e-05, momentum=0.1, affine=True, track_running_stats=True)\n      (relu): ReLU(inplace=True)\n    )\n    (4): Bottleneck(\n      (conv1): Conv2d(1024, 512, kernel_size=(1, 1), stride=(1, 1), bias=False)\n      (bn1): BatchNorm2d(512, eps=1e-05, momentum=0.1, affine=True, track_running_stats=True)\n      (conv2): Conv2d(512, 512, kernel_size=(3, 3), stride=(1, 1), padding=(1, 1), bias=False)\n      (bn2): BatchNorm2d(512, eps=1e-05, momentum=0.1, affine=True, track_running_stats=True)\n      (conv3): Conv2d(512, 1024, kernel_size=(1, 1), stride=(1, 1), bias=False)\n      (bn3): BatchNorm2d(1024, eps=1e-05, momentum=0.1, affine=True, track_running_stats=True)\n      (relu): ReLU(inplace=True)\n    )\n    (5): Bottleneck(\n      (conv1): Conv2d(1024, 512, kernel_size=(1, 1), stride=(1, 1), bias=False)\n      (bn1): BatchNorm2d(512, eps=1e-05, momentum=0.1, affine=True, track_running_stats=True)\n      (conv2): Conv2d(512, 512, kernel_size=(3, 3), stride=(1, 1), padding=(1, 1), bias=False)\n      (bn2): BatchNorm2d(512, eps=1e-05, momentum=0.1, affine=True, track_running_stats=True)\n      (conv3): Conv2d(512, 1024, kernel_size=(1, 1), stride=(1, 1), bias=False)\n      (bn3): BatchNorm2d(1024, eps=1e-05, momentum=0.1, affine=True, track_running_stats=True)\n      (relu): ReLU(inplace=True)\n    )\n    (6): Bottleneck(\n      (conv1): Conv2d(1024, 512, kernel_size=(1, 1), stride=(1, 1), bias=False)\n      (bn1): BatchNorm2d(512, eps=1e-05, momentum=0.1, affine=True, track_running_stats=True)\n      (conv2): Conv2d(512, 512, kernel_size=(3, 3), stride=(1, 1), padding=(1, 1), bias=False)\n      (bn2): BatchNorm2d(512, eps=1e-05, momentum=0.1, affine=True, track_running_stats=True)\n      (conv3): Conv2d(512, 1024, kernel_size=(1, 1), stride=(1, 1), bias=False)\n      (bn3): BatchNorm2d(1024, eps=1e-05, momentum=0.1, affine=True, track_running_stats=True)\n      (relu): ReLU(inplace=True)\n    )\n    (7): Bottleneck(\n      (conv1): Conv2d(1024, 512, kernel_size=(1, 1), stride=(1, 1), bias=False)\n      (bn1): BatchNorm2d(512, eps=1e-05, momentum=0.1, affine=True, track_running_stats=True)\n      (conv2): Conv2d(512, 512, kernel_size=(3, 3), stride=(1, 1), padding=(1, 1), bias=False)\n      (bn2): BatchNorm2d(512, eps=1e-05, momentum=0.1, affine=True, track_running_stats=True)\n      (conv3): Conv2d(512, 1024, kernel_size=(1, 1), stride=(1, 1), bias=False)\n      (bn3): BatchNorm2d(1024, eps=1e-05, momentum=0.1, affine=True, track_running_stats=True)\n      (relu): ReLU(inplace=True)\n    )\n    (8): Bottleneck(\n      (conv1): Conv2d(1024, 512, kernel_size=(1, 1), stride=(1, 1), bias=False)\n      (bn1): BatchNorm2d(512, eps=1e-05, momentum=0.1, affine=True, track_running_stats=True)\n      (conv2): Conv2d(512, 512, kernel_size=(3, 3), stride=(1, 1), padding=(1, 1), bias=False)\n      (bn2): BatchNorm2d(512, eps=1e-05, momentum=0.1, affine=True, track_running_stats=True)\n      (conv3): Conv2d(512, 1024, kernel_size=(1, 1), stride=(1, 1), bias=False)\n      (bn3): BatchNorm2d(1024, eps=1e-05, momentum=0.1, affine=True, track_running_stats=True)\n      (relu): ReLU(inplace=True)\n    )\n    (9): Bottleneck(\n      (conv1): Conv2d(1024, 512, kernel_size=(1, 1), stride=(1, 1), bias=False)\n      (bn1): BatchNorm2d(512, eps=1e-05, momentum=0.1, affine=True, track_running_stats=True)\n      (conv2): Conv2d(512, 512, kernel_size=(3, 3), stride=(1, 1), padding=(1, 1), bias=False)\n      (bn2): BatchNorm2d(512, eps=1e-05, momentum=0.1, affine=True, track_running_stats=True)\n      (conv3): Conv2d(512, 1024, kernel_size=(1, 1), stride=(1, 1), bias=False)\n      (bn3): BatchNorm2d(1024, eps=1e-05, momentum=0.1, affine=True, track_running_stats=True)\n      (relu): ReLU(inplace=True)\n    )\n    (10): Bottleneck(\n      (conv1): Conv2d(1024, 512, kernel_size=(1, 1), stride=(1, 1), bias=False)\n      (bn1): BatchNorm2d(512, eps=1e-05, momentum=0.1, affine=True, track_running_stats=True)\n      (conv2): Conv2d(512, 512, kernel_size=(3, 3), stride=(1, 1), padding=(1, 1), bias=False)\n      (bn2): BatchNorm2d(512, eps=1e-05, momentum=0.1, affine=True, track_running_stats=True)\n      (conv3): Conv2d(512, 1024, kernel_size=(1, 1), stride=(1, 1), bias=False)\n      (bn3): BatchNorm2d(1024, eps=1e-05, momentum=0.1, affine=True, track_running_stats=True)\n      (relu): ReLU(inplace=True)\n    )\n    (11): Bottleneck(\n      (conv1): Conv2d(1024, 512, kernel_size=(1, 1), stride=(1, 1), bias=False)\n      (bn1): BatchNorm2d(512, eps=1e-05, momentum=0.1, affine=True, track_running_stats=True)\n      (conv2): Conv2d(512, 512, kernel_size=(3, 3), stride=(1, 1), padding=(1, 1), bias=False)\n      (bn2): BatchNorm2d(512, eps=1e-05, momentum=0.1, affine=True, track_running_stats=True)\n      (conv3): Conv2d(512, 1024, kernel_size=(1, 1), stride=(1, 1), bias=False)\n      (bn3): BatchNorm2d(1024, eps=1e-05, momentum=0.1, affine=True, track_running_stats=True)\n      (relu): ReLU(inplace=True)\n    )\n    (12): Bottleneck(\n      (conv1): Conv2d(1024, 512, kernel_size=(1, 1), stride=(1, 1), bias=False)\n      (bn1): BatchNorm2d(512, eps=1e-05, momentum=0.1, affine=True, track_running_stats=True)\n      (conv2): Conv2d(512, 512, kernel_size=(3, 3), stride=(1, 1), padding=(1, 1), bias=False)\n      (bn2): BatchNorm2d(512, eps=1e-05, momentum=0.1, affine=True, track_running_stats=True)\n      (conv3): Conv2d(512, 1024, kernel_size=(1, 1), stride=(1, 1), bias=False)\n      (bn3): BatchNorm2d(1024, eps=1e-05, momentum=0.1, affine=True, track_running_stats=True)\n      (relu): ReLU(inplace=True)\n    )\n    (13): Bottleneck(\n      (conv1): Conv2d(1024, 512, kernel_size=(1, 1), stride=(1, 1), bias=False)\n      (bn1): BatchNorm2d(512, eps=1e-05, momentum=0.1, affine=True, track_running_stats=True)\n      (conv2): Conv2d(512, 512, kernel_size=(3, 3), stride=(1, 1), padding=(1, 1), bias=False)\n      (bn2): BatchNorm2d(512, eps=1e-05, momentum=0.1, affine=True, track_running_stats=True)\n      (conv3): Conv2d(512, 1024, kernel_size=(1, 1), stride=(1, 1), bias=False)\n      (bn3): BatchNorm2d(1024, eps=1e-05, momentum=0.1, affine=True, track_running_stats=True)\n      (relu): ReLU(inplace=True)\n    )\n    (14): Bottleneck(\n      (conv1): Conv2d(1024, 512, kernel_size=(1, 1), stride=(1, 1), bias=False)\n      (bn1): BatchNorm2d(512, eps=1e-05, momentum=0.1, affine=True, track_running_stats=True)\n      (conv2): Conv2d(512, 512, kernel_size=(3, 3), stride=(1, 1), padding=(1, 1), bias=False)\n      (bn2): BatchNorm2d(512, eps=1e-05, momentum=0.1, affine=True, track_running_stats=True)\n      (conv3): Conv2d(512, 1024, kernel_size=(1, 1), stride=(1, 1), bias=False)\n      (bn3): BatchNorm2d(1024, eps=1e-05, momentum=0.1, affine=True, track_running_stats=True)\n      (relu): ReLU(inplace=True)\n    )\n    (15): Bottleneck(\n      (conv1): Conv2d(1024, 512, kernel_size=(1, 1), stride=(1, 1), bias=False)\n      (bn1): BatchNorm2d(512, eps=1e-05, momentum=0.1, affine=True, track_running_stats=True)\n      (conv2): Conv2d(512, 512, kernel_size=(3, 3), stride=(1, 1), padding=(1, 1), bias=False)\n      (bn2): BatchNorm2d(512, eps=1e-05, momentum=0.1, affine=True, track_running_stats=True)\n      (conv3): Conv2d(512, 1024, kernel_size=(1, 1), stride=(1, 1), bias=False)\n      (bn3): BatchNorm2d(1024, eps=1e-05, momentum=0.1, affine=True, track_running_stats=True)\n      (relu): ReLU(inplace=True)\n    )\n    (16): Bottleneck(\n      (conv1): Conv2d(1024, 512, kernel_size=(1, 1), stride=(1, 1), bias=False)\n      (bn1): BatchNorm2d(512, eps=1e-05, momentum=0.1, affine=True, track_running_stats=True)\n      (conv2): Conv2d(512, 512, kernel_size=(3, 3), stride=(1, 1), padding=(1, 1), bias=False)\n      (bn2): BatchNorm2d(512, eps=1e-05, momentum=0.1, affine=True, track_running_stats=True)\n      (conv3): Conv2d(512, 1024, kernel_size=(1, 1), stride=(1, 1), bias=False)\n      (bn3): BatchNorm2d(1024, eps=1e-05, momentum=0.1, affine=True, track_running_stats=True)\n      (relu): ReLU(inplace=True)\n    )\n    (17): Bottleneck(\n      (conv1): Conv2d(1024, 512, kernel_size=(1, 1), stride=(1, 1), bias=False)\n      (bn1): BatchNorm2d(512, eps=1e-05, momentum=0.1, affine=True, track_running_stats=True)\n      (conv2): Conv2d(512, 512, kernel_size=(3, 3), stride=(1, 1), padding=(1, 1), bias=False)\n      (bn2): BatchNorm2d(512, eps=1e-05, momentum=0.1, affine=True, track_running_stats=True)\n      (conv3): Conv2d(512, 1024, kernel_size=(1, 1), stride=(1, 1), bias=False)\n      (bn3): BatchNorm2d(1024, eps=1e-05, momentum=0.1, affine=True, track_running_stats=True)\n      (relu): ReLU(inplace=True)\n    )\n    (18): Bottleneck(\n      (conv1): Conv2d(1024, 512, kernel_size=(1, 1), stride=(1, 1), bias=False)\n      (bn1): BatchNorm2d(512, eps=1e-05, momentum=0.1, affine=True, track_running_stats=True)\n      (conv2): Conv2d(512, 512, kernel_size=(3, 3), stride=(1, 1), padding=(1, 1), bias=False)\n      (bn2): BatchNorm2d(512, eps=1e-05, momentum=0.1, affine=True, track_running_stats=True)\n      (conv3): Conv2d(512, 1024, kernel_size=(1, 1), stride=(1, 1), bias=False)\n      (bn3): BatchNorm2d(1024, eps=1e-05, momentum=0.1, affine=True, track_running_stats=True)\n      (relu): ReLU(inplace=True)\n    )\n    (19): Bottleneck(\n      (conv1): Conv2d(1024, 512, kernel_size=(1, 1), stride=(1, 1), bias=False)\n      (bn1): BatchNorm2d(512, eps=1e-05, momentum=0.1, affine=True, track_running_stats=True)\n      (conv2): Conv2d(512, 512, kernel_size=(3, 3), stride=(1, 1), padding=(1, 1), bias=False)\n      (bn2): BatchNorm2d(512, eps=1e-05, momentum=0.1, affine=True, track_running_stats=True)\n      (conv3): Conv2d(512, 1024, kernel_size=(1, 1), stride=(1, 1), bias=False)\n      (bn3): BatchNorm2d(1024, eps=1e-05, momentum=0.1, affine=True, track_running_stats=True)\n      (relu): ReLU(inplace=True)\n    )\n    (20): Bottleneck(\n      (conv1): Conv2d(1024, 512, kernel_size=(1, 1), stride=(1, 1), bias=False)\n      (bn1): BatchNorm2d(512, eps=1e-05, momentum=0.1, affine=True, track_running_stats=True)\n      (conv2): Conv2d(512, 512, kernel_size=(3, 3), stride=(1, 1), padding=(1, 1), bias=False)\n      (bn2): BatchNorm2d(512, eps=1e-05, momentum=0.1, affine=True, track_running_stats=True)\n      (conv3): Conv2d(512, 1024, kernel_size=(1, 1), stride=(1, 1), bias=False)\n      (bn3): BatchNorm2d(1024, eps=1e-05, momentum=0.1, affine=True, track_running_stats=True)\n      (relu): ReLU(inplace=True)\n    )\n    (21): Bottleneck(\n      (conv1): Conv2d(1024, 512, kernel_size=(1, 1), stride=(1, 1), bias=False)\n      (bn1): BatchNorm2d(512, eps=1e-05, momentum=0.1, affine=True, track_running_stats=True)\n      (conv2): Conv2d(512, 512, kernel_size=(3, 3), stride=(1, 1), padding=(1, 1), bias=False)\n      (bn2): BatchNorm2d(512, eps=1e-05, momentum=0.1, affine=True, track_running_stats=True)\n      (conv3): Conv2d(512, 1024, kernel_size=(1, 1), stride=(1, 1), bias=False)\n      (bn3): BatchNorm2d(1024, eps=1e-05, momentum=0.1, affine=True, track_running_stats=True)\n      (relu): ReLU(inplace=True)\n    )\n    (22): Bottleneck(\n      (conv1): Conv2d(1024, 512, kernel_size=(1, 1), stride=(1, 1), bias=False)\n      (bn1): BatchNorm2d(512, eps=1e-05, momentum=0.1, affine=True, track_running_stats=True)\n      (conv2): Conv2d(512, 512, kernel_size=(3, 3), stride=(1, 1), padding=(1, 1), bias=False)\n      (bn2): BatchNorm2d(512, eps=1e-05, momentum=0.1, affine=True, track_running_stats=True)\n      (conv3): Conv2d(512, 1024, kernel_size=(1, 1), stride=(1, 1), bias=False)\n      (bn3): BatchNorm2d(1024, eps=1e-05, momentum=0.1, affine=True, track_running_stats=True)\n      (relu): ReLU(inplace=True)\n    )\n  )\n  (layer4): Sequential(\n    (0): Bottleneck(\n      (conv1): Conv2d(1024, 1024, kernel_size=(1, 1), stride=(1, 1), bias=False)\n      (bn1): BatchNorm2d(1024, eps=1e-05, momentum=0.1, affine=True, track_running_stats=True)\n      (conv2): Conv2d(1024, 1024, kernel_size=(3, 3), stride=(2, 2), padding=(1, 1), bias=False)\n      (bn2): BatchNorm2d(1024, eps=1e-05, momentum=0.1, affine=True, track_running_stats=True)\n      (conv3): Conv2d(1024, 2048, kernel_size=(1, 1), stride=(1, 1), bias=False)\n      (bn3): BatchNorm2d(2048, eps=1e-05, momentum=0.1, affine=True, track_running_stats=True)\n      (relu): ReLU(inplace=True)\n      (downsample): Sequential(\n        (0): Conv2d(1024, 2048, kernel_size=(1, 1), stride=(2, 2), bias=False)\n        (1): BatchNorm2d(2048, eps=1e-05, momentum=0.1, affine=True, track_running_stats=True)\n      )\n    )\n    (1): Bottleneck(\n      (conv1): Conv2d(2048, 1024, kernel_size=(1, 1), stride=(1, 1), bias=False)\n      (bn1): BatchNorm2d(1024, eps=1e-05, momentum=0.1, affine=True, track_running_stats=True)\n      (conv2): Conv2d(1024, 1024, kernel_size=(3, 3), stride=(1, 1), padding=(1, 1), bias=False)\n      (bn2): BatchNorm2d(1024, eps=1e-05, momentum=0.1, affine=True, track_running_stats=True)\n      (conv3): Conv2d(1024, 2048, kernel_size=(1, 1), stride=(1, 1), bias=False)\n      (bn3): BatchNorm2d(2048, eps=1e-05, momentum=0.1, affine=True, track_running_stats=True)\n      (relu): ReLU(inplace=True)\n    )\n    (2): Bottleneck(\n      (conv1): Conv2d(2048, 1024, kernel_size=(1, 1), stride=(1, 1), bias=False)\n      (bn1): BatchNorm2d(1024, eps=1e-05, momentum=0.1, affine=True, track_running_stats=True)\n      (conv2): Conv2d(1024, 1024, kernel_size=(3, 3), stride=(1, 1), padding=(1, 1), bias=False)\n      (bn2): BatchNorm2d(1024, eps=1e-05, momentum=0.1, affine=True, track_running_stats=True)\n      (conv3): Conv2d(1024, 2048, kernel_size=(1, 1), stride=(1, 1), bias=False)\n      (bn3): BatchNorm2d(2048, eps=1e-05, momentum=0.1, affine=True, track_running_stats=True)\n      (relu): ReLU(inplace=True)\n    )\n  )\n  (avgpool): AdaptiveAvgPool2d(output_size=(1, 1))\n  (fc): Linear(in_features=2048, out_features=1000, bias=True)\n)", "wide_resnet50_2": "ResNet(\n  (conv1): Conv2d(3, 64, kernel_size=(7, 7), stride=(2, 2), padding=(3, 3), bias=False)\n  (bn1): BatchNorm2d(64, eps=1e-05, momentum=0.1, affine=True, track_running_stats=True)\n  (relu): ReLU(inplace=True)\n  (maxpool): MaxPool2d(kernel_size=3, stride=2, padding=1, dilation=1, ceil_mode=False)\n  (layer1): Sequential(\n    (0): Bottleneck(\n      (conv1): Conv2d(64, 128, kernel_size=(1, 1), stride=(1, 1), bias=False)\n      (bn1): BatchNorm2d(128, eps=1e-05, momentum=0.1, affine=True, track_running_stats=True)\n      (conv2): Conv2d(128, 128, kernel_size=(3, 3), stride=(1, 1), padding=(1, 1), bias=False)\n      (bn2): BatchNorm2d(128, eps=1e-05, momentum=0.1, affine=True, track_running_stats=True)\n      (conv3): Conv2d(128, 256, kernel_size=(1, 1), stride=(1, 1), bias=False)\n      (bn3): BatchNorm2d(256, eps=1e-05, momentum=0.1, affine=True, track_running_stats=True)\n      (relu): ReLU(inplace=True)\n      (downsample): Sequential(\n        (0): Conv2d(64, 256, kernel_size=(1, 1), stride=(1, 1), bias=False)\n        (1): BatchNorm2d(256, eps=1e-05, momentum=0.1, affine=True, track_running_stats=True)\n      )\n    )\n    (1): Bottleneck(\n      (conv1): Conv2d(256, 128, kernel_size=(1, 1), stride=(1, 1), bias=False)\n      (bn1): BatchNorm2d(128, eps=1e-05, momentum=0.1, affine=True, track_running_stats=True)\n      (conv2): Conv2d(128, 128, kernel_size=(3, 3), stride=(1, 1), padding=(1, 1), bias=False)\n      (bn2): BatchNorm2d(128, eps=1e-05, momentum=0.1, affine=True, track_running_stats=True)\n      (conv3): Conv2d(128, 256, kernel_size=(1, 1), stride=(1, 1), bias=False)\n      (bn3): BatchNorm2d(256, eps=1e-05, momentum=0.1, affine=True, track_running_stats=True)\n      (relu): ReLU(inplace=True)\n    )\n    (2): Bottleneck(\n      (conv1): Conv2d(256, 128, kernel_size=(1, 1), stride=(1, 1), bias=False)\n      (bn1): BatchNorm2d(128, eps=1e-05, momentum=0.1, affine=True, track_running_stats=True)\n      (conv2): Conv2d(128, 128, kernel_size=(3, 3), stride=(1, 1), padding=(1, 1), bias=False)\n      (bn2): BatchNorm2d(128, eps=1e-05, momentum=0.1, affine=True, track_running_stats=True)\n      (conv3): Conv2d(128, 256, kernel_size=(1, 1), stride=(1, 1), bias=False)\n      (bn3): BatchNorm2d(256, eps=1e-05, momentum=0.1, affine=True, track_running_stats=True)\n      (relu): ReLU(inplace=True)\n    )\n  )\n  (layer2): Sequential(\n    (0): Bottleneck(\n      (conv1): Conv2d(256, 256, kernel_size=(1, 1), stride=(1, 1), bias=False)\n      (bn1): BatchNorm2d(256, eps=1e-05, momentum=0.1, affine=True, track_running_stats=True)\n      (conv2): Conv2d(256, 256, kernel_size=(3, 3), stride=(2, 2), padding=(1, 1), bias=False)\n      (bn2): BatchNorm2d(256, eps=1e-05, momentum=0.1, affine=True, track_running_stats=True)\n      (conv3): Conv2d(256, 512, kernel_size=(1, 1), stride=(1, 1), bias=False)\n      (bn3): BatchNorm2d(512, eps=1e-05, momentum=0.1, affine=True, track_running_stats=True)\n      (relu): ReLU(inplace=True)\n      (downsample): Sequential(\n        (0): Conv2d(256, 512, kernel_size=(1, 1), stride=(2, 2), bias=False)\n        (1): BatchNorm2d(512, eps=1e-05, momentum=0.1, affine=True, track_running_stats=True)\n      )\n    )\n    (1): Bottleneck(\n      (conv1): Conv2d(512, 256, kernel_size=(1, 1), stride=(1, 1), bias=False)\n      (bn1): BatchNorm2d(256, eps=1e-05, momentum=0.1, affine=True, track_running_stats=True)\n      (conv2): Conv2d(256, 256, kernel_size=(3, 3), stride=(1, 1), padding=(1, 1), bias=False)\n      (bn2): BatchNorm2d(256, eps=1e-05, momentum=0.1, affine=True, track_running_stats=True)\n      (conv3): Conv2d(256, 512, kernel_size=(1, 1), stride=(1, 1), bias=False)\n      (bn3): BatchNorm2d(512, eps=1e-05, momentum=0.1, affine=True, track_running_stats=True)\n      (relu): ReLU(inplace=True)\n    )\n    (2): Bottleneck(\n      (conv1): Conv2d(512, 256, kernel_size=(1, 1), stride=(1, 1), bias=False)\n      (bn1): BatchNorm2d(256, eps=1e-05, momentum=0.1, affine=True, track_running_stats=True)\n      (conv2): Conv2d(256, 256, kernel_size=(3, 3), stride=(1, 1), padding=(1, 1), bias=False)\n      (bn2): BatchNorm2d(256, eps=1e-05, momentum=0.1, affine=True, track_running_stats=True)\n      (conv3): Conv2d(256, 512, kernel_size=(1, 1), stride=(1, 1), bias=False)\n      (bn3): BatchNorm2d(512, eps=1e-05, momentum=0.1, affine=True, track_running_stats=True)\n      (relu): ReLU(inplace=True)\n    )\n    (3): Bottleneck(\n      (conv1): Conv2d(512, 256, kernel_size=(1, 1), stride=(1, 1), bias=False)\n      (bn1): BatchNorm2d(256, eps=1e-05, momentum=0.1, affine=True, track_running_stats=True)\n      (conv2): Conv2d(256, 256, kernel_size=(3, 3), stride=(1, 1), padding=(1, 1), bias=False)\n      (bn2): BatchNorm2d(256, eps=1e-05, momentum=0.1, affine=True, track_running_stats=True)\n      (conv3): Conv2d(256, 512, kernel_size=(1, 1), stride=(1, 1), bias=False)\n      (bn3): BatchNorm2d(512, eps=1e-05, momentum=0.1, affine=True, track_running_stats=True)\n      (relu): ReLU(inplace=True)\n    )\n  )\n  (layer3): Sequential(\n    (0): Bottleneck(\n      (conv1): Conv2d(512, 512, kernel_size=(1, 1), stride=(1, 1), bias=False)\n      (bn1): BatchNorm2d(512, eps=1e-05, momentum=0.1, affine=True, track_running_stats=True)\n      (conv2): Conv2d(512, 512, kernel_size=(3, 3), stride=(2, 2), padding=(1, 1), bias=False)\n      (bn2): BatchNorm2d(512, eps=1e-05, momentum=0.1, affine=True, track_running_stats=True)\n      (conv3): Conv2d(512, 1024, kernel_size=(1, 1), stride=(1, 1), bias=False)\n      (bn3): BatchNorm2d(1024, eps=1e-05, momentum=0.1, affine=True, track_running_stats=True)\n      (relu): ReLU(inplace=True)\n      (downsample): Sequential(\n        (0): Conv2d(512, 1024, kernel_size=(1, 1), stride=(2, 2), bias=False)\n        (1): BatchNorm2d(1024, eps=1e-05, momentum=0.1, affine=True, track_running_stats=True)\n      )\n    )\n    (1): Bottleneck(\n      (conv1): Conv2d(1024, 512, kernel_size=(1, 1), stride=(1, 1), bias=False)\n      (bn1): BatchNorm2d(512, eps=1e-05, momentum=0.1, affine=True, track_running_stats=True)\n      (conv2): Conv2d(512, 512, kernel_size=(3, 3), stride=(1, 1), padding=(1, 1), bias=False)\n      (bn2): BatchNorm2d(512, eps=1e-05, momentum=0.1, affine=True, track_running_stats=True)\n      (conv3): Conv2d(512, 1024, kernel_size=(1, 1), stride=(1, 1), bias=False)\n      (bn3): BatchNorm2d(1024, eps=1e-05, momentum=0.1, affine=True, track_running_stats=True)\n      (relu): ReLU(inplace=True)\n    )\n    (2): Bottleneck(\n      (conv1): Conv2d(1024, 512, kernel_size=(1, 1), stride=(1, 1), bias=False)\n      (bn1): BatchNorm2d(512, eps=1e-05, momentum=0.1, affine=True, track_running_stats=True)\n      (conv2): Conv2d(512, 512, kernel_size=(3, 3), stride=(1, 1), padding=(1, 1), bias=False)\n      (bn2): BatchNorm2d(512, eps=1e-05, momentum=0.1, affine=True, track_running_stats=True)\n      (conv3): Conv2d(512, 1024, kernel_size=(1, 1), stride=(1, 1), bias=False)\n      (bn3): BatchNorm2d(1024, eps=1e-05, momentum=0.1, affine=True, track_running_stats=True)\n      (relu): ReLU(inplace=True)\n    )\n    (3): Bottleneck(\n      (conv1): Conv2d(1024, 512, kernel_size=(1, 1), stride=(1, 1), bias=False)\n      (bn1): BatchNorm2d(512, eps=1e-05, momentum=0.1, affine=True, track_running_stats=True)\n      (conv2): Conv2d(512, 512, kernel_size=(3, 3), stride=(1, 1), padding=(1, 1), bias=False)\n      (bn2): BatchNorm2d(512, eps=1e-05, momentum=0.1, affine=True, track_running_stats=True)\n      (conv3): Conv2d(512, 1024, kernel_size=(1, 1), stride=(1, 1), bias=False)\n      (bn3): BatchNorm2d(1024, eps=1e-05, momentum=0.1, affine=True, track_running_stats=True)\n      (relu): ReLU(inplace=True)\n    )\n    (4): Bottleneck(\n      (conv1): Conv2d(1024, 512, kernel_size=(1, 1), stride=(1, 1), bias=False)\n      (bn1): BatchNorm2d(512, eps=1e-05, momentum=0.1, affine=True, track_running_stats=True)\n      (conv2): Conv2d(512, 512, kernel_size=(3, 3), stride=(1, 1), padding=(1, 1), bias=False)\n      (bn2): BatchNorm2d(512, eps=1e-05, momentum=0.1, affine=True, track_running_stats=True)\n      (conv3): Conv2d(512, 1024, kernel_size=(1, 1), stride=(1, 1), bias=False)\n      (bn3): BatchNorm2d(1024, eps=1e-05, momentum=0.1, affine=True, track_running_stats=True)\n      (relu): ReLU(inplace=True)\n    )\n    (5): Bottleneck(\n      (conv1): Conv2d(1024, 512, kernel_size=(1, 1), stride=(1, 1), bias=False)\n      (bn1): BatchNorm2d(512, eps=1e-05, momentum=0.1, affine=True, track_running_stats=True)\n      (conv2): Conv2d(512, 512, kernel_size=(3, 3), stride=(1, 1), padding=(1, 1), bias=False)\n      (bn2): BatchNorm2d(512, eps=1e-05, momentum=0.1, affine=True, track_running_stats=True)\n      (conv3): Conv2d(512, 1024, kernel_size=(1, 1), stride=(1, 1), bias=False)\n      (bn3): BatchNorm2d(1024, eps=1e-05, momentum=0.1, affine=True, track_running_stats=True)\n      (relu): ReLU(inplace=True)\n    )\n  )\n  (layer4): Sequential(\n    (0): Bottleneck(\n      (conv1): Conv2d(1024, 1024, kernel_size=(1, 1), stride=(1, 1), bias=False)\n      (bn1): BatchNorm2d(1024, eps=1e-05, momentum=0.1, affine=True, track_running_stats=True)\n      (conv2): Conv2d(1024, 1024, kernel_size=(3, 3), stride=(2, 2), padding=(1, 1), bias=False)\n      (bn2): BatchNorm2d(1024, eps=1e-05, momentum=0.1, affine=True, track_running_stats=True)\n      (conv3): Conv2d(1024, 2048, kernel_size=(1, 1), stride=(1, 1), bias=False)\n      (bn3): BatchNorm2d(2048, eps=1e-05, momentum=0.1, affine=True, track_running_stats=True)\n      (relu): ReLU(inplace=True)\n      (downsample): Sequential(\n        (0): Conv2d(1024, 2048, kernel_size=(1, 1), stride=(2, 2), bias=False)\n        (1): BatchNorm2d(2048, eps=1e-05, momentum=0.1, affine=True, track_running_stats=True)\n      )\n    )\n    (1): Bottleneck(\n      (conv1): Conv2d(2048, 1024, kernel_size=(1, 1), stride=(1, 1), bias=False)\n      (bn1): BatchNorm2d(1024, eps=1e-05, momentum=0.1, affine=True, track_running_stats=True)\n      (conv2): Conv2d(1024, 1024, kernel_size=(3, 3), stride=(1, 1), padding=(1, 1), bias=False)\n      (bn2): BatchNorm2d(1024, eps=1e-05, momentum=0.1, affine=True, track_running_stats=True)\n      (conv3): Conv2d(1024, 2048, kernel_size=(1, 1), stride=(1, 1), bias=False)\n      (bn3): BatchNorm2d(2048, eps=1e-05, momentum=0.1, affine=True, track_running_stats=True)\n      (relu): ReLU(inplace=True)\n    )\n    (2): Bottleneck(\n      (conv1): Conv2d(2048, 1024, kernel_size=(1, 1), stride=(1, 1), bias=False)\n      (bn1): BatchNorm2d(1024, eps=1e-05, momentum=0.1, affine=True, track_running_stats=True)\n      (conv2): Conv2d(1024, 1024, kernel_size=(3, 3), stride=(1, 1), padding=(1, 1), bias=False)\n      (bn2): BatchNorm2d(1024, eps=1e-05, momentum=0.1, affine=True, track_running_stats=True)\n      (conv3): Conv2d(1024, 2048, kernel_size=(1, 1), stride=(1, 1), bias=False)\n      (bn3): BatchNorm2d(2048, eps=1e-05, momentum=0.1, affine=True, track_running_stats=True)\n      (relu): ReLU(inplace=True)\n    )\n  )\n  (avgpool): AdaptiveAvgPool2d(output_size=(1, 1))\n  (fc): Linear(in_features=2048, out_features=1000, bias=True)\n)"}